import React, { useState, useEffect, useCallback, useMemo, useRef, forwardRef, useImperativeHandle } from "react";
import { createPortal } from "react-dom"; // Issue #403 — ModalOverlay foundation
import { Home, BookOpen, GraduationCap, CalendarDays, BarChart2, BarChart3, Plus, Search, X, Sparkles, Check, Lock, Users, Pencil, AlertCircle, ChevronLeft, ChevronRight, ChevronDown, RotateCcw, Eye, Shield, Settings, Flame, Mic, CheckCircle, Volume2, Trash2, Gift, Star, Play, ArrowUpRight, ArrowDownRight, LayoutDashboard, User, ClipboardList, MessageSquare, TrendingUp, Target, Copy, } from "lucide-react";
import { ENGLISH_STROKES } from "./data/englishStrokes";
const ALL_THAI_STROKES = { ...ENGLISH_STROKES };
import { getStroke } from "perfect-freehand"; // Issue #61
import { normalizeStroke, scoreStroke } from "./utils/unistrokeRecognizer"; // Issue #61
import {
  storageGet, storageGetSafe, storageSet, storageList, storageDelete,
  getSupabaseClient, storageUpload, getLastSharedKvError, setStorageAuthState, getCurrentUsername, getStorageUser, USE_SUPABASE,
  addS0Energy, getS0Energy, calcS0Energy, S0_ENERGY_MAX,
  generateStudentCode,
} from "./storage.js";
const LessonPathFeature = React.lazy(() =>
  import("./LessonPathFeature.jsx").catch(() => {
    // #687 — stale chunk after deploy: reload once so the browser fetches the new bundle.
    if (!sessionStorage.getItem("chunk-reload")) {
      sessionStorage.setItem("chunk-reload", "1");
      window.location.reload();
    }
    return { default: () => null };
  })
);

// ---------------------------------------------------------------------------
// Sprint 11 — Real per-student accounts (name + PIN) instead of name-only.
//
// Supabase Anonymous Auth has no way to "log back in" to the same identity
// from a different device with just a name, so each account is a real
// email/password Supabase Auth user under the hood — the "email" is just
// `<name>@chaachaa-angkrit-app.com` (never a real mailbox) and the "password" is
// the student's 4-digit PIN. This gives every student a stable, unique
// auth.uid() that Postgres Row-Level-Security can lock their data to,
// instead of the old plain-text `username` column anyone could read/write.
// ---------------------------------------------------------------------------
// Typography constants — change font here, takes effect everywhere in this file
const FONT_ENGLISH = "'Poppins', sans-serif";   // language being learned (English)
const FONT_THAI    = "'Sarabun', sans-serif";    // students' native language (Thai)

const AUTH_DOMAIN         = "chaachaa-angkrit-app.com"; // NOTE: fake per-student email domain, never
                                                     // actually sent to. Must NOT be a reserved/
                                                     // special-use TLD (.local, .test, .example,
                                                     // .invalid, .internal, etc) — Supabase Auth
                                                     // rejects those as "invalid" on signUp.
const LEGACY_AUTH_DOMAINS = ["chaachaa-angrueit-app.com"]; // Pre-rename domain (Angrueit → Angkrit).
                                                     // Accounts created before the rename still have
                                                     // this as their real Supabase Auth email domain —
                                                     // kept as a login fallback so those students
                                                     // aren't locked out. New accounts always use
                                                     // AUTH_DOMAIN above.
const PIN_PASSWORD_PREFIX = "chaa-pin-"; // pads the 4-digit PIN past Supabase's min password length
const ACCOUNT_PREFIX      = "account:";  // shared_kv account:<slug> -> { createdAt } (marks "PIN already set")

function slugifyUsername(username) {
  return (username || "")
    .normalize("NFD").replace(/[\u0300-\u036f]/g, "") // strip accents
    .trim().toLowerCase().replace(/[^a-z0-9]+/g, "-").replace(/^-+|-+$/g, "") || "user";
}
function usernameToEmail(username, domain = AUTH_DOMAIN) { return `${slugifyUsername(username)}@${domain}`; }
function pinToPassword(pin)        { return `${PIN_PASSWORD_PREFIX}${pin}`; }

function sessionStorageKey(slug) { return `sb-session:${slug}`; }
function saveSession(slug, session) {
  if (!session) return;
  try {
    localStorage.setItem(sessionStorageKey(slug), JSON.stringify({
      access_token: session.access_token, refresh_token: session.refresh_token,
    }));
  } catch (e) {}
}

// Resume a previously-authenticated student on this device without asking
// for their PIN again (until they explicitly log out).
async function restoreSession(username) {
  const slug = slugifyUsername(username);
  let raw;
  try { raw = localStorage.getItem(sessionStorageKey(slug)); } catch (e) { return null; }
  if (!raw) return null;
  try {
    const { access_token, refresh_token } = JSON.parse(raw);
    const client = await getSupabaseClient();
    const { data, error } = await client.auth.setSession({ access_token, refresh_token });
    if (error || !data?.user) return null;
    setStorageAuthState(data.user, username);
    saveSession(slug, data.session);
    return data.user;
  } catch (e) { return null; }
}

// Sign in (existing account) or sign up (first time this name sets a PIN).
// Throws a user-facing error message on failure (wrong PIN, etc).
async function authenticateAccount(username, pin) {
  const client = await getSupabaseClient();
  const email  = usernameToEmail(username);
  const password = pinToPassword(pin);
  const slug   = slugifyUsername(username);

  const hasAccount = await storageGet(`${ACCOUNT_PREFIX}${slug}`, true);

  if (hasAccount) {
    let signInResult = await client.auth.signInWithPassword({ email, password });

    // Accounts created before the Angkrit rename live under LEGACY_AUTH_DOMAINS
    // instead of AUTH_DOMAIN — retry with each before giving up (see ADR on the
    // Angrueit → Angkrit migration in docs/decisions.md).
    if (signInResult.error || !signInResult.data?.user) {
      for (const domain of LEGACY_AUTH_DOMAINS) {
        const legacyResult = await client.auth.signInWithPassword({
          email: usernameToEmail(username, domain), password,
        });
        if (!legacyResult.error && legacyResult.data?.user) { signInResult = legacyResult; break; }
      }
    }

    const { data, error } = signInResult;
    if (error || !data?.user) throw new Error("PIN ไม่ถูกต้องสำหรับชื่อนี้");
    setStorageAuthState(data.user, username);
    saveSession(slug, data.session);
    return data.user;
  }

  // New name (or a legacy pre-PIN account) — create the real account now.
  const { data, error } = await client.auth.signUp({ email, password });

  if (error || !data?.user) {
    // The account:<slug> marker in shared_kv can get out of sync with the
    // real Supabase Auth users table (e.g. the marker write failed/was lost,
    // or the account was created through a different path before the marker
    // existed). In that case Auth already knows this email but our marker
    // says "never seen" — signUp then fails with "User already registered".
    //
    // Recover by trying to sign in instead: if the PIN the student just
    // typed happens to match the existing account, log them in and backfill
    // the missing marker so this doesn't happen again. If it doesn't match,
    // we genuinely don't know the original PIN — tell the student their
    // account already exists so they try their real PIN, instead of the
    // confusing raw Supabase error.
    const alreadyRegistered = /already registered|already exists/i.test(error?.message || "");
    if (alreadyRegistered) {
      const retry = await client.auth.signInWithPassword({ email, password });
      if (!retry.error && retry.data?.user) {
        setStorageAuthState(retry.data.user, username);
        saveSession(slug, retry.data.session);
        await storageSet(`${ACCOUNT_PREFIX}${slug}`, { createdAt: Date.now() }, true); // backfill marker
        return retry.data.user;
      }
      throw new Error("ชื่อนี้มีอยู่แล้ว — กรุณาใส่ PIN เดิมของคุณ");
    }
    throw new Error("Could not create your account: " + (error?.message || "unknown error"));
  }

  setStorageAuthState(data.user, username);
  saveSession(slug, data.session);
  await storageSet(`${ACCOUNT_PREFIX}${slug}`, { createdAt: Date.now() }, true);

  // Claim any pre-existing rows saved under this exact name before PINs
  // existed (old anonymous system), so returning students keep their history.
  try {
    await client.from("personal_kv")
      .update({ user_id: data.user.id })
      .eq("username", username)
      .is("user_id", null);
  } catch (e) { /* best-effort, ignore */ }

  return data.user;
}

// ---------------------------------------------------------------------------
// Fixed categories (only the project owner adds new ones — out of scope for v1)
// ---------------------------------------------------------------------------
const CATEGORIES = [
  { id: "greetings", name: "Greetings & Courtesy", color: "#E8A33D" },
  { id: "people", name: "People & Family", color: "#8E6BAE" },
  { id: "food", name: "Food & Drink", color: "#C84B31" },
  { id: "numbers", name: "Numbers & Quantities", color: "#2F6E5C" },
  { id: "time", name: "Time & Calendar", color: "#3D6FA8" },
  { id: "places", name: "Places & Directions", color: "#5C8A8A" },
  { id: "travel", name: "Travel & Transport", color: "#B5793A" },
  { id: "health", name: "Body & Health", color: "#A8527A" },
  { id: "home", name: "Home & Daily Life", color: "#6E8E4F" },
  { id: "work", name: "Work & Study", color: "#4F6E8E" },
  { id: "emotions", name: "Emotions & Descriptions", color: "#A85C3D" },
  { id: "verbs", name: "Essential Verbs", color: "#7A6EA8" },
];
const catById = (id, cats = CATEGORIES) => cats.find((c) => c.id === id);

const CUSTOM_CATS_KEY      = "custom-categories";  // shared storage
const NOTIF_PREFS_KEY      = "notif-prefs";         // personal: { enabled, time }
const GACHA_SOUND_KEY      = "gacha-sound-enabled"; // personal: boolean, default true (Issue #243)
const MIC_DEVICE_KEY       = "mic-device-pref"; // personal: {id, label} | null (Issue #268)

const CAT_COLORS = [
  "#E8633D","#3DA8E8","#8E3DE8","#3DC87A",
  "#C8A83D","#E83D8E","#3DC8C8","#A83DE8",
];

// ---------------------------------------------------------------------------
// Sprint 9.1 — Achievement definitions
// ---------------------------------------------------------------------------
const SESSIONS_KEY    = "sessions-completed";   // personal: total Practice sessions done
const UNLOCKED_ACH_KEY = "unlocked-achievements"; // personal: array of unlocked achievement ids
const PATH_STATS_KEY  = "path-stats";            // personal: cumulative Path Mode stats for achievements
const WEEKLY_STARLIGHT_KEY    = "weekly-starlight-week";      // #700: ISO week when last Starlight was granted
const OVERNIGHT_INTEREST_KEY  = "coins-at-last-purchase";     // #700: coin balance snapshot at last purchase
const OVERNIGHT_DATE_KEY      = "coins-interest-last-date";   // #700: last date interest was applied
const COMBO_COUNT_KEY         = "combo-count-total";          // #701: total combo bonuses received (all time)
const PERFECT_SESSIONS_KEY    = "perfect-sessions-total";     // #701: total perfect practice sessions
const LOGIN_BONUS_KEY         = "daily-login-bonus-week";     // #702: { weekKey, pool, collected: [] }
const LOGIN_BONUS_DATE_KEY    = "daily-login-bonus-last-date";// #702: last date bonus was collected
const VAPID_PUBLIC_KEY        = import.meta.env.VITE_VAPID_PUBLIC_KEY || ""; // #573: Web Push
// #699 — maps each class code prefix to its CEFR level name
const CODE_TO_LEVEL = {
  S0: "Pre-A1", S1: "Pre-A1",
  S2: "A1",     S3: "A1",
  S4: "A2",     S5: "A2",
  S6: "B1",     S7: "B1",  S8: "B1",
  S9: "B2",     S10: "B2",
  S11: "C1",    S12: "C1",
  S13: "C2",    S14: "C2",
};
function codeToLevel(classCode) {
  if (!classCode) return null;
  const prefix = classCode.match(/^(S\d+)/)?.[1];
  return CODE_TO_LEVEL[prefix] || null;
}
// #793 — resolves cefrLevel from stored meta first; S0/S1 hardcoded as Pre-A1
function resolveCodeLevel(code, metaMap = {}) {
  const prefix = code?.match(/^(S\d+)/)?.[1];
  if (prefix === "S0" || prefix === "S1") return "Pre-A1";
  return metaMap[code]?.cefrLevel || null;
}
const ACTIVITY_LOG_KEY        = "activity-log";          // personal: array of ISO date strings (one per practice session day) — #502
const ONBOARDING_KEY          = "onboarding-done";        // personal: true after first-visit tour completes — #508
const VISITED_EVENTS_KEY      = "visited-tab-events";     // personal: true after first manual visit to Events tab — #556
const VISITED_PROGRESS_KEY    = "visited-tab-progress";   // personal: true after first manual visit to Progress tab — #557
const EVENT_POPUP_DATE_KEY    = "event-popup-date";        // personal: "YYYY-MM-DD" of last shown event popup — #559
const SESSION_TIME_KEY        = "session-time-log";         // personal: [{date,durationMs}] — #613 study time tracking
const ENERGY_SPEND_LOG_KEY    = "energy-spend-log";          // personal: [{date,amount}] — energy units spent in Path Mode per day
const PATH_ACCURACY_LOG_KEY   = "path-accuracy-log";         // personal: [{date,correct,total}] — per-lesson accuracy in Path Mode
const GACHA_WEEK_LOG_KEY      = "gacha-week-log";            // personal: [{date,pulls}] — #855 gacha pulls per day
const COINS_WEEK_LOG_KEY      = "coins-week-log";            // personal: [{date,amount}] — #856 coins earned (>0) per day
const GA_COINS_LOG_KEY        = "ga-coins-log";              // personal: [{date,amount}] — #857 coins earned during Golden Abundance
const PATH_LESSONS_LOG_KEY   = "path-lessons-log";           // personal: [{date,count}] — #858 path lessons completed per day
const PATH_SKILL_LOG_KEY     = "path-skill-log";             // personal: [{date,listenCorrect,listenTotal,writeCorrect,writeTotal}] — #858
const PATH_REPLAY_LOG_KEY    = "path-replay-log";            // personal: [{date,count}] — #858 perfect replays per day
const OVERNIGHT_COINS_LOG_KEY = "overnight-coins-log";       // personal: [{date,amount}] — #860 coins from overnight interest
// #526 — versioning system: vite injects "X.Y.Z|hash"; we format with codename
const _APP_VERSION_RAW = import.meta.env.VITE_APP_VERSION || "0.2.0|dev";
const _APP_CODENAMES   = ["", "Siamese", "Ragdoll", "Bengal", "Maine Coon", "Abyssinian", "Persian", "Sphynx", "Scottish Fold", "Birman", "Norwegian Forest", "Burmese", "Tonkinese", "Balinese", "Savannah", "Turkish Angora", "Russian Blue", "Korat", "Chartreux", "Havana Brown", "Singapura", "Khao Manee", "Devon Rex", "Cornish Rex", "Siberian", "Manx"];
function _buildAppVersion(raw) {
  const [ver, hash] = raw.split("|");
  const minor = parseInt((ver || "0.2.0").split(".")[1] || "0", 10);
  const major  = parseInt((ver || "0.2.0").split(".")[0] || "0", 10);
  const name   = _APP_CODENAMES[minor] || `v${minor}`;
  return major >= 1
    ? `${name} Version - ${ver} - ${hash}`
    : `${ver} - Project ${name} - ${hash}`;
}
const APP_VERSION = _buildAppVersion(_APP_VERSION_RAW); // #526
const SECURITY_QUESTION_KEY   = (slug) => `security-question:${slug}`; // shared: { question, answerHash } — #518

// #518 — fixed list of recovery questions
const SECURITY_QUESTIONS = [
  "What is your favorite animal?",
  "What city were you born in?",
  "What is your mother's first name?",
  "What was the name of your first pet?",
  "What is your favorite food?",
  "What is your best friend's first name?",
];

// #518 — SHA-256 hex of answer (trimmed + lowercased), computed client-side
async function hashAnswer(answer) {
  const buf = await crypto.subtle.digest("SHA-256", new TextEncoder().encode(answer.trim().toLowerCase()));
  return Array.from(new Uint8Array(buf)).map(b => b.toString(16).padStart(2, "0")).join("");
}

// Save or update security question for the current student (shared_kv, keyed by slug)
async function saveSecurityQuestion(username, question, answer) {
  const slug = username.trim().toLowerCase();
  const answerHash = await hashAnswer(answer);
  await storageSet(SECURITY_QUESTION_KEY(slug), { question, answerHash }, true);
}

// Load security question text for any username (shared_kv — readable without login)
// Returns { question } or null if not set.
async function loadSecurityQuestion(username) {
  const slug = username.trim().toLowerCase();
  const stored = await storageGet(SECURITY_QUESTION_KEY(slug), true);
  if (!stored?.question) return null;
  return { question: stored.question };
}

// ---------------------------------------------------------------------------
// Sprint 9.2 — Achievement engine
// ---------------------------------------------------------------------------
async function runAchievementEngine(stats, rewardOverrides, { onRareTicket, onEpicTicket, onAvatarPrize } = {}) {
  const prev    = await storageGet(UNLOCKED_ACH_KEY, false) || [];
  const prevSet = new Set(prev);
  const current = getUnlockedIds(stats);
  const newOnes = current
    .filter(id => !prevSet.has(id))
    .map(id => ACHIEVEMENTS.find(a => a.id === id))
    .filter(Boolean);
  const merged = [...new Set([...prev, ...current])];
  await storageSet(UNLOCKED_ACH_KEY, merged, false);
  // Issue #231/#234 — credit Meowtongs for everything unlocked in this pass,
  // using the teacher's override when one is set for that achievement.
  const coinsEarned = newOnes.reduce((sum, a) => sum + getAchievementValue(a, rewardOverrides), 0);
  if (coinsEarned > 0) await creditCoins(coinsEarned, "Achievement unlocked");
  // Issue #499 — award Moonrise Tickets for achievements carrying ticket: "rare"
  const rareTicketsEarned = newOnes.filter(a => a.ticket === "rare").length;
  if (rareTicketsEarned > 0) {
    const tickets = (await storageGet("gacha-tickets", false)) || {};
    await storageSet("gacha-tickets", { ...tickets, rare: (tickets.rare || 0) + rareTicketsEarned }, false);
    await onRareTicket?.(rareTicketsEarned);
  }
  // Issue #557 — Starlight Tickets for achievements carrying ticket: "epic"
  const epicTicketsEarned = newOnes.filter(a => a.ticket === "epic").length;
  if (epicTicketsEarned > 0) {
    const tickets = (await storageGet("gacha-tickets", false)) || {};
    await storageSet("gacha-tickets", { ...tickets, epic: (tickets.epic || 0) + epicTicketsEarned }, false);
    await onEpicTicket?.(epicTicketsEarned);
  }
  // Issue #556 — Avatar prize for achievements carrying avatarPrize: "<id>"
  const avatarPrizes = newOnes.filter(a => a.avatarPrize).map(a => a.avatarPrize);
  for (const avatarId of avatarPrizes) {
    await onAvatarPrize?.(avatarId);
  }
  return { newOnes, total: merged.length, merged, coinsEarned, rareTicketsEarned, epicTicketsEarned, avatarPrizes };
}

// Issue #231 — every achievement now carries a `value` (Meowtongs reward),
// scaled by difficulty within its own category (harder milestone = bigger payout).
const ACHIEVEMENTS = [
  // ── Streak ────────────────────────────────────────────────────────────
  { id: "streak_1",   emoji: "🔥", title: "First Flame",      desc: "Reach a 1-day streak",       cat: "streak",   color: "#E8A33D", value: 20,  check: s => s.streakBest >= 1   },
  { id: "streak_3",   emoji: "🔥", title: "Fire Starter",     desc: "Reach a 3-day streak",       cat: "streak",   color: "#E8A33D", value: 50,  check: s => s.streakBest >= 3   },
  { id: "streak_7",   emoji: "🏅", title: "Week Warrior",     desc: "Reach a 7-day streak",       cat: "streak",   color: "#E8A33D", value: 100, check: s => s.streakBest >= 7   },
  { id: "streak_14",  emoji: "🔥", title: "Fortnight Fire",   desc: "Reach a 14-day streak",      cat: "streak",   color: "#E8A33D", value: 200, check: s => s.streakBest >= 14  },
  { id: "streak_30",  emoji: "🏆", title: "Monthly Master",   desc: "Reach a 30-day streak",      cat: "streak",   color: "#E8A33D", value: 500, check: s => s.streakBest >= 30  },
  // ── Vocabulary ────────────────────────────────────────────────────────
  { id: "words_1",    emoji: "📖", title: "First Word",       desc: "Practice your first word",   cat: "vocab",    color: "#3D6FA8", value: 20,  check: s => s.wordsAttempted >= 1   },
  { id: "words_25",   emoji: "📚", title: "Word Collector",   desc: "Practice 25 words",          cat: "vocab",    color: "#3D6FA8", value: 80,  check: s => s.wordsAttempted >= 25  },
  { id: "words_100",  emoji: "📚", title: "Vocabulary Bank",  desc: "Practice 100 words",         cat: "vocab",    color: "#3D6FA8", value: 250, check: s => s.wordsAttempted >= 100 },
  { id: "master_10",  emoji: "⭐", title: "Sharp Mind",       desc: "Master 10 words (SRS 14d+)", cat: "vocab",    color: "#3D6FA8", value: 150, check: s => s.wordsMastered >= 10   },
  { id: "master_50",  emoji: "🌟", title: "Memory Champion",  desc: "Master 50 words (SRS 14d+)", cat: "vocab",    color: "#3D6FA8", value: 400, check: s => s.wordsMastered >= 50   },
  // ── Sunday Test ───────────────────────────────────────────────────────
  { id: "st_first",   emoji: "🗓", title: "Sunday Scholar",   desc: "Complete your first Sunday Test",    cat: "sunday",   color: "#8E6BAE", value: 50,  check: s => s.sundayTestCount >= 1  },
  { id: "st_4",       emoji: "📅", title: "Four Sundays",     desc: "Complete 4 Sunday Tests",            cat: "sunday",   color: "#8E6BAE", value: 150, check: s => s.sundayTestCount >= 4  },
  { id: "st_perfect", emoji: "💯", title: "Perfect Sunday",   desc: "Score 100% on a Sunday Test",        cat: "sunday",   color: "#8E6BAE", value: 300, check: s => s.perfectSundayTests >= 1 },
  // ── Practice ─────────────────────────────────────────────────────────
  { id: "prac_1",     emoji: "✅", title: "First Step",       desc: "Complete your first Practice lesson", cat: "practice", color: "#2F6E5C", value: 20,  check: s => s.sessionsCompleted >= 1  },
  { id: "prac_10",    emoji: "🎯", title: "Dedicated",        desc: "Complete 10 Practice lessons",        cat: "practice", color: "#2F6E5C", value: 100, check: s => s.sessionsCompleted >= 10 },
  { id: "prac_30",    emoji: "💪", title: "Unstoppable",      desc: "Complete 30 Practice lessons",        cat: "practice", color: "#2F6E5C", value: 300, check: s => s.sessionsCompleted >= 30 },
  // ── Special ───────────────────────────────────────────────────────────
  { id: "combo_7st",  emoji: "🌈", title: "Full Week",        desc: "7-day streak + complete a Sunday Test", cat: "special", color: "#C84B31", value: 200, check: s => s.streakBest >= 7 && s.sundayTestCount >= 1 },
  { id: "combo_all",  emoji: "👑", title: "Complete Scholar", desc: "Master 10 words + complete 4 Sunday Tests", cat: "special", color: "#C84B31", value: 500, check: s => s.wordsMastered >= 10 && s.sundayTestCount >= 4 },
  // Issue #180 — unlock every avatar in the random prize pool (shop-exclusive avatars don't count, they aren't drawable)
  { id: "avatar_collector", emoji: "🐾", title: "Collector", desc: "Unlock every avatar in the prize pool", cat: "special", color: "#C84B31", value: 600, check: s => {
      const poolIds = getPrizePoolAvatars().map(a => a.id);
      return poolIds.length > 0 && poolIds.every(id => (s.unlockedAvatars || []).includes(id));
    } },
  // #752 — first legendary avatar (any source: gacha, banner, monthly cat)
  { id: "first_legendary", emoji: "👑", title: "First Legendary", desc: "Obtain your first Legendary avatar", cat: "special", color: "#D4AF37", value: 300, check: s => {
      const catalog = getFullAvatarCatalog();
      const catalogMap = Object.fromEntries(catalog.map(a => [a.id, a]));
      return (s.unlockedAvatars || []).some(id => catalogMap[id]?.rarity === "legendary");
    } },
  // ── Secret (Issue #236) — deliberately absent from the gallery while
  // locked (see ProgressScreen rendering below); these are "beyond the
  // visible ceiling" stretch goals, one notch past the hardest achievement
  // already visible in their theme (50 sessions > prac_30's 30, 100 words
  // mastered > master_50's 50, 3 perfect Sunday Tests > st_perfect's 1).
  { id: "secret_iron",     emoji: "💎", title: "Iron Will",        desc: "Complete 50 Practice lessons",              cat: "secret", color: "#6B4E9E", value: 700, check: s => s.sessionsCompleted >= 50 },
  { id: "secret_sage",     emoji: "🦉", title: "Vocabulary Sage",  desc: "Master 100 words (SRS 14d+)",               cat: "secret", color: "#6B4E9E", value: 800, check: s => s.wordsMastered >= 100 },
  { id: "secret_flawless", emoji: "🌙", title: "Flawless Trio",    desc: "Score 100% on 3 different Sunday Tests",    cat: "secret", color: "#6B4E9E", value: 750, check: s => s.perfectSundayTests >= 3 },
  // ── #508 — Onboarding tour secret achievements (hidden until triggered) ──
  { id: "secret_tour_full", emoji: "🗺️", title: "Orienteering",    desc: "Completed the full app tour without skipping", cat: "secret", color: "#6B4E9E", value: 75,  check: s => s.tourCompletedFull },
  { id: "secret_tour_skip", emoji: "⚡", title: "No Time to Waste", desc: "Skipped the app tour",                        cat: "secret", color: "#6B4E9E", value: 30,  check: s => s.tourCompletedSkip },
  // ── #556/#557 — Tab exploration secret achievements ──
  { id: "secret_explore_events",   emoji: "🎪", title: "Event Seeker", desc: "Visited the Events tab on your own",   cat: "secret", color: "#6B4E9E", value: 0,    ticket: "rare", avatarPrize: "cantalon-meowlupe", check: s => s.visitedEventsTab },
  { id: "secret_explore_progress", emoji: "📈", title: "Explorer",     desc: "Visited the Progress tab on your own", cat: "secret", color: "#6B4E9E", value: 1000, ticket: "epic",                                   check: s => s.visitedProgressTab },
  // ── Exam (Issue #237, generic — any level; distinct from #45's Pre-A1→A1-specific ones) ──
  { id: "exam_pass",    emoji: "🎓", title: "Exam Ace",     desc: "Pass a level exam",                     cat: "exam",          color: "#3D6FA8", value: 300, check: s => s.examPassedAny },
  { id: "exam_perfect", emoji: "💯", title: "Flawless Exam", desc: "Score 100% on a level exam",           cat: "exam",          color: "#3D6FA8", value: 600, check: s => s.examPerfectAny },
  // ── Level (Issue #45.1) — generic, fires on ANY level advancement (Pre-A1→A1,
  // A1→A2, etc). The two Pre-A1→A1-SPECIFIC achievements ("Mr. Smartpants" /
  // "ไม่เป็นไรลูก") are separate, added in sub-issue 45.2 — this one alone
  // doesn't care about attempt number or which levels, just that level advanced.
  { id: "level_up",     emoji: "🎓", title: "Level Completed", desc: "Advance to the next proficiency level", cat: "level", color: "#2F6E5C", value: 250, check: s => s.levelUpAny },
  // Issue #45.2 — Pre-A1 -> A1-SPECIFIC (not generic like level_up above).
  // "Mr. Smartpants" rewards nailing the very first proficiency exam on the
  // very first try; "ไม่เป็นไรลูก" (Mài Bpen Rai Luuk — "it's okay, kid")
  // is the encouragement counterpart for failing that same first attempt —
  // deliberately not a punishment, keeps the app's tone warm either way.
  { id: "level_pre_a1_pass1", emoji: "🧠", title: "Mr. Smartpants",              desc: "Pass the Pre-A1 → A1 exam on your first attempt", cat: "level", color: "#2F6E5C", value: 350, check: s => s.examPreA1FirstAttemptPass },
  { id: "level_pre_a1_fail1", emoji: "🫂", title: "ไม่เป็นไรลูก Mài Bpen Rai Luuk", desc: "Take your first shot at the Pre-A1 → A1 exam",    cat: "level", color: "#2F6E5C", value: 100, check: s => s.examPreA1FirstAttemptFail },
  // ── Pronunciation (Issue #237) ────────────────────────────────────────
  { id: "pron_master",  emoji: "🎤", title: "Golden Tongue", desc: "Reach 90%+ average pronunciation on 10 words", cat: "pronunciation", color: "#2F6E5C", value: 350, check: s => s.pronMasteredCount >= 10 },
  // ── Comeback + Gacha (Issue #237) ─────────────────────────────────────
  { id: "special_comeback", emoji: "🔥", title: "Phoenix",        desc: "Rebuild a 3-day streak after losing a 7+ day streak", cat: "special", color: "#C84B31", value: 250, check: s => s.comebackAchieved },
  { id: "special_gacha",    emoji: "🎰", title: "First Fortune",  desc: "Acquire your first Gacha ticket",                     cat: "special", color: "#C84B31", value: 100, check: s => s.gachaTicketAcquired },
  // ── Daily Reward (Issue #677) ─────────────────────────────────────────
  { id: "daily_ticket_collector", emoji: "🎁", title: "Ticket Collector", desc: "Collect a Moonrise, Starlight & Solstice Ticket from Daily Rewards", cat: "streak", color: "#E8A33D", value: 0, ticket: "epic", check: s => !!(s.dailyRewardTickets?.rare && s.dailyRewardTickets?.epic && s.dailyRewardTickets?.banner) },
  { id: "secret_daily_double",    emoji: "✨", title: "Lucky Paws",        desc: "Used a cat power to double a Daily Reward for the first time",        cat: "secret", color: "#6B4E9E", value: 0, ticket: "rare", check: s => !!s.usedDailyDouble },
  // ── Berserk Mode (Issue #52.4) — one entry for starting the mode at all,
  // plus one per tier cleared with a perfect run (1/2/3 stars). Values scale
  // with tier difficulty, same convention as every other category here.
  { id: "berserk_start",  emoji: "😾", title: "Going Berserk", desc: "Start your first Berserk Mode attempt",             cat: "berserk", color: "#C84B31", value: 50,  check: s => s.berserkAttempts >= 1 },
  { id: "berserk_easy",   emoji: "🥉", title: "Smart Cat",     desc: "Clear the Easy Berserk tier with a perfect run",    cat: "berserk", color: "#C84B31", value: 200, check: s => s.berserkEasyCleared },
  { id: "berserk_medium", emoji: "🥈", title: "Word-aholic",   desc: "Clear the Medium Berserk tier with a perfect run",  cat: "berserk", color: "#C84B31", value: 400, check: s => s.berserkMediumCleared },
  { id: "berserk_hard",   emoji: "🥇", title: "Khun Phra!",    desc: "Clear the Hard Berserk tier with a perfect run",    cat: "berserk", color: "#C84B31", value: 700, check: s => s.berserkHardCleared },
  // ── Lesson Path (Issue #499) ─────────────────────────────────────────
  { id: "path_first",      emoji: "🗺️", title: "First Steps",          desc: "Complete your first Path Mode lesson",                     cat: "path", color: "#4A90C4", value: 30,  check: s => s.pathLessonsCompleted >= 1 },
  { id: "path_middle2",    emoji: "🐘", title: "Middle Scholar",        desc: "Complete the Middle Class Consonants lesson",              cat: "path", color: "#4A90C4", value: 200, ticket: "rare", check: s => s.pathMiddleConsonants2Done },
  { id: "path_section1",   emoji: "🏁", title: "Section Complete",      desc: "Complete your first full Path Mode section",              cat: "path", color: "#4A90C4", value: 150, check: s => s.pathSectionsCompleted >= 1 },
  { id: "path_perfect",    emoji: "💯", title: "Flawless Lesson",       desc: "Complete a Path Mode lesson with 100% accuracy",          cat: "path", color: "#4A90C4", value: 200, check: s => s.pathPerfectLessons >= 1 },
  { id: "path_listen_25",  emoji: "🎧", title: "Sharp Ears",            desc: "Answer 25 Listening activities correctly",                cat: "path", color: "#4A90C4", value: 80,  check: s => s.pathListeningCorrect >= 25  },
  { id: "path_listen_50",  emoji: "🎧", title: "Sound Seeker",          desc: "Answer 50 Listening activities correctly",                cat: "path", color: "#4A90C4", value: 150, check: s => s.pathListeningCorrect >= 50  },
  { id: "path_listen_100", emoji: "👂", title: "Listening Master",      desc: "Answer 100 Listening activities correctly",               cat: "path", color: "#4A90C4", value: 300, check: s => s.pathListeningCorrect >= 100 },
  { id: "path_match_25",   emoji: "🔍", title: "Pattern Scout",         desc: "Match 25 characters correctly",                          cat: "path", color: "#4A90C4", value: 80,  check: s => s.pathMatchCorrect >= 25  },
  { id: "path_match_50",   emoji: "🔍", title: "Pattern Hunter",        desc: "Match 50 characters correctly",                          cat: "path", color: "#4A90C4", value: 150, check: s => s.pathMatchCorrect >= 50  },
  { id: "path_match_100",  emoji: "🎯", title: "Match Master",          desc: "Match 100 characters correctly",                         cat: "path", color: "#4A90C4", value: 300, check: s => s.pathMatchCorrect >= 100 },
  { id: "path_tips_50",    emoji: "💡", title: "Curious Learner",       desc: "Read 50 Tip cards",                                      cat: "path", color: "#4A90C4", value: 100, check: s => s.pathTipsRead >= 50  },
  { id: "path_tips_100",   emoji: "💡", title: "Knowledge Seeker",      desc: "Read 100 Tip cards",                                     cat: "path", color: "#4A90C4", value: 200, check: s => s.pathTipsRead >= 100 },
  // ── Calligraphy (Issue #358, Phase 10.7c) — reuses calligraphyProgMap
  // (#62) as its data source, no new tracking needed. Deliberately simple
  // bar ("at least 1 pass") for both, same yardstick the issue's own
  // examples used — mastery-level (3 passes) achievements can come later
  // if Bruno wants a harder tier once #63/#356 (vowels/tones) land.
  { id: "callig_10",       emoji: "✍️", title: "First Strokes",     desc: "Trace 10 different Thai characters",      cat: "calligrapher", color: "#6D4C41", value: 100, check: s => s.calligraphyCharsPassed >= 10 },
  { id: "callig_alphabet", emoji: "📜", title: "Complete Alphabet", desc: "Trace all 44 Thai consonants",            cat: "calligrapher", color: "#6D4C41", value: 500, check: s => s.calligraphyAlphabetComplete },
  // Issue #415 (Phase 10) — word-level writing achievements
  { id: "word_first",  emoji: "✍️", title: "First Word",   desc: "Write your first complete Thai word",    cat: "calligrapher", color: "#6D4C41", value: 150, check: s => s.wordCalligraphyWordsAttempted >= 1  },
  { id: "word_10",     emoji: "📝", title: "Word Writer",  desc: "Write 10 different Thai words",          cat: "calligrapher", color: "#6D4C41", value: 300, check: s => s.wordCalligraphyWordsAttempted >= 10 },
  { id: "word_master", emoji: "🏆", title: "Word Master",  desc: "Pass 5 words with score ≥ 75%",          cat: "calligrapher", color: "#6D4C41", value: 500, check: s => s.wordCalligraphyWordsPassed >= 5      },
  // #703 — Path Mode consonant milestone achievements (Section 0)
  { id: "path_low_class_done",  emoji: "🌙", title: "Low Class Learned",   desc: "Completed all Low Class consonant lessons",                      cat: "path", color: "#4A90C4", value: 200, ticket: "rare",  check: s => s.pathLowClassDone },
  { id: "path_high_class_done", emoji: "⭐", title: "High Class Learned",  desc: "Completed all High Class consonant lessons",                     cat: "path", color: "#4A90C4", value: 200, ticket: "rare",  check: s => s.pathHighClassDone },
  { id: "path_first_mastery",   emoji: "🎖️", title: "Three Classes Done",  desc: "Completed consonant lessons for all three consonant classes",    cat: "path", color: "#4A90C4", value: 300, ticket: "rare",  check: s => s.pathFirstMasteryDone },
  { id: "path_section0_complete", emoji: "🎓", title: "Foundation Complete", desc: "Learnt all Thai consonants and mastered them",                 cat: "path", color: "#4A90C4", value: 500, ticket: "epic",  check: s => s.pathSectionsCompleted >= 1 },
  // #703 — Combo streak achievements
  { id: "combo_first",     emoji: "⚡", title: "First Combo",     desc: "Get a 5-in-a-row streak in a practice session",           cat: "practice", color: "#E67E22", value: 50,  check: s => s.comboCount >= 1   },
  { id: "combo_10",        emoji: "⚡", title: "Combo Streak",    desc: "Get 10 combo streaks across all practice sessions",       cat: "practice", color: "#E67E22", value: 150, ticket: "rare", check: s => s.comboCount >= 10  },
  { id: "combo_100",       emoji: "⚡", title: "Combo Master",    desc: "Get 100 combo streaks across all practice sessions",      cat: "practice", color: "#E67E22", value: 400, ticket: "rare", check: s => s.comboCount >= 100 },
  // #703 — Perfect practice session achievements
  { id: "perfect_session_first", emoji: "✨", title: "Perfect Session",  desc: "Complete a practice session without any mistakes",            cat: "practice", color: "#8E44AD", value: 100,  check: s => s.perfectSessions >= 1  },
  { id: "perfect_session_10",    emoji: "✨", title: "Perfection Habit", desc: "Complete 10 practice sessions without any mistakes",          cat: "practice", color: "#8E44AD", value: 300, ticket: "rare", check: s => s.perfectSessions >= 10 },
  // #703 — Perfect Path lesson achievements
  { id: "perfect_lesson_5",  emoji: "🎯", title: "Sharp Focus",     desc: "Complete 5 Path Mode lessons with 100% accuracy",             cat: "path", color: "#4A90C4", value: 200, ticket: "rare", check: s => s.pathPerfectLessons >= 5  },
  { id: "perfect_lesson_25", emoji: "🎯", title: "Laser Accurate",  desc: "Complete 25 Path Mode lessons with 100% accuracy",            cat: "path", color: "#4A90C4", value: 500, ticket: "epic", check: s => s.pathPerfectLessons >= 25 },
  // #703 — Daily Login Bonus achievements
  { id: "login_bonus_first",     emoji: "🎁", title: "First Gift",       desc: "Collect your first daily login bonus",                        cat: "special", color: "#27AE60", value: 50,  check: s => s.loginBonusTotal >= 1       },
  { id: "login_bonus_full_week", emoji: "📅", title: "Full Week",         desc: "Collect all 7 daily login bonuses in one week",               cat: "special", color: "#27AE60", value: 300, ticket: "rare", check: s => s.loginBonusWeekFull         },
  { id: "login_bonus_starlight", emoji: "🌟", title: "Starlight Reward", desc: "Collect a Starlight Ticket from the weekly login bonus",      cat: "special", color: "#27AE60", value: 0,   ticket: "epic", check: s => s.loginBonusGotStarlight     },
  { id: "login_bonus_streak_30", emoji: "🔥", title: "Month of Logins",  desc: "Collect login bonuses for 30 consecutive days",               cat: "special", color: "#27AE60", value: 500, ticket: "epic", check: s => s.loginBonusStreakDays >= 30 },
  // #703 — Secret: replay a path lesson with 100% accuracy
  { id: "secret_repeat_perfect",    emoji: "🔮", title: "Second Time Lucky", desc: "Complete a Path Mode replay with 100% accuracy",                          cat: "secret", color: "#8E44AD", value: 1200, ticket: "epic", check: s => s.pathReplayPerfectDone },
  { id: "secret_listen_write_25",   emoji: "📝", title: "Secretary Kim",    desc: "Completed 25 Listen & Write activities with no mistakes",                  cat: "secret", color: "#8E44AD", value: 1000, ticket: "epic", check: s => s.pathListenWriteCorrect >= 25 },
];

const ACH_CAT_LABELS = { streak: "Streak", vocab: "Vocabulary", sunday: "Sunday Test", practice: "Practice", path: "Lesson Path", exam: "Exam", pronunciation: "Pronunciation", special: "Special", secret: "Secret", level: "Level", berserk: "Berserk Mode", calligrapher: "Calligraphy" };
const ACH_CAT_ICONS = { streak: "🔥", vocab: "📖", sunday: "📅", practice: "✏️", path: "🗺️", exam: "📝", pronunciation: "🎙️", special: "⭐", secret: "🔮", level: "📊", berserk: "⚡", calligrapher: "🖌️" };

// Issue #234 — teacher-editable Meowtongs reward per achievement, defaulting
// to the difficulty-scaled `value` above. Shared KV: { [achievementId]: number }.
const ACHIEVEMENT_REWARD_OVERRIDES_KEY = "achievement-reward-overrides";

function getAchievementValue(achievement, overrides) {
  const ov = overrides?.[achievement.id];
  return (typeof ov === "number" && ov >= 0) ? ov : (achievement.value || 0);
}

async function getAchievementRewardOverrides() {
  return (await storageGet(ACHIEVEMENT_REWARD_OVERRIDES_KEY, true)) || {};
}

// Compute all stats needed for achievement checks
function computeAchievementStats(progMap, streak, stHistory, sessionsCompleted, profile, extra = {}) {
  const { examHistory = [], gachaTickets = {}, words = [], berserkStars = {}, berserkAttempts = 0, calligraphyProg = {}, wordCalligraphyProg = {}, pathStats = {}, onboardingMeta = null, visitedEventsTab = false, visitedProgressTab = false, dailyRewardTickets = null, usedDailyDouble = false, comboCount = 0, perfectSessions = 0, loginBonusTotal = 0, loginBonusWeekFull = false, loginBonusGotStarlight = false, loginBonusStreakDays = 0 } = extra;
  const vals    = Object.values(progMap);
  const perfect = stHistory.filter(s => {
    const rs = Object.values(s.results || {});
    return rs.length > 0 && rs.every(r => r.correct);
  }).length;
  // Issue #237 — pronunciation mastery: words with an average STT score >= 90.
  const pronMasteredCount = words.length
    ? computePronStats(progMap, words).filter(p => p.avgScore >= 90).length
    : 0;
  const streakBest  = streak?.best  || 0;
  const streakCount = streak?.count || 0;
  return {
    streakBest:          streakBest || streakCount,
    wordsAttempted:      vals.filter(p => p.count > 0).length,
    wordsMastered:       vals.filter(p => p.srsInterval >= 14).length,
    sundayTestCount:     stHistory.length,
    perfectSundayTests:  perfect,
    sessionsCompleted:   sessionsCompleted || 0,
    // Issue #180 — Collector achievement needs to see which avatars are owned
    unlockedAvatars:     profile?.unlockedAvatars || [],
    // Issue #237 — Exam Master: any passed exam / any 100% exam, any level.
    examPassedAny:       examHistory.some(e => e.passed),
    examPerfectAny:      examHistory.some(e => e.pct === 100),
    // Issue #237 — Pronunciation: 10 words with avg STT score 90%+.
    pronMasteredCount,
    // Issue #237 — Comeback: once had a 7+ day streak, it broke, and the
    // student rebuilt at least 3 days of a new one since.
    comebackAchieved:    streakBest >= 7 && streakCount >= 3 && streakCount < streakBest,
    // Issue #237 — Gacha: acquired at least one ticket (rare or epic), ever.
    gachaTicketAcquired: ((gachaTickets.rare || 0) + (gachaTickets.epic || 0)) >= 1,
    // Issue #45.1 — Level Completed: true once the student has ever advanced
    // past the starting level (Pre-A1). LEVELS is declared later in this file
    // as a module-level const — safe to reference here since this function
    // only ever runs post-module-eval, well after LEVELS is assigned.
    levelUpAny: LEVELS.indexOf(profile?.level || "Pre-A1") >= 1,
    // Issue #45.2 — Pre-A1 -> A1-specific, keyed off examHistory's per-level
    // attemptNumber (already recorded by recordExamAttempt since #43 — no
    // new tracking needed). Exam entries carry `level` = the level BEING
    // tested (i.e. "Pre-A1" is the exam that, if passed, advances to A1).
    examPreA1FirstAttemptPass: examHistory.some(e => e.level === "Pre-A1" && e.attemptNumber === 1 && e.passed),
    examPreA1FirstAttemptFail: examHistory.some(e => e.level === "Pre-A1" && e.attemptNumber === 1 && !e.passed),
    // Issue #52.4 — Berserk Mode achievements.
    berserkAttempts:      berserkAttempts || 0,
    berserkEasyCleared:   !!berserkStars.easy,
    berserkMediumCleared: !!berserkStars.medium,
    berserkHardCleared:   !!berserkStars.hard,
    // Issue #358 — Calligraphy achievements, sourced from calligraphyProgMap
    // (#62). "Passed" = at least 1 successful full-character trace; scope is
    // the 44 consonants only for now (vowels/tones are stretch goal #63/#356).
    calligraphyCharsPassed:     Object.values(calligraphyProg).filter(p => (p?.passes || 0) >= 1).length,
    calligraphyAlphabetComplete: Object.keys(ENGLISH_STROKES).every(ch => (calligraphyProg[ch]?.passes || 0) >= 1),
    // Issue #415 — word-level writing achievements
    wordCalligraphyWordsAttempted: Object.values(wordCalligraphyProg).filter(p => (p?.attempts || 0) >= 1).length,
    wordCalligraphyWordsPassed:    Object.values(wordCalligraphyProg).filter(p => (p?.passes   || 0) >= 1).length,
    // Issue #499 — Lesson Path achievements
    pathLessonsCompleted:    pathStats.lessonsCompleted   || 0,
    pathSectionsCompleted:   pathStats.sectionsCompleted  || 0,
    pathListeningCorrect:    pathStats.listeningCorrect   || 0,
    pathMatchCorrect:        pathStats.matchCorrect       || 0,
    pathTipsRead:            pathStats.tipsRead           || 0,
    pathPerfectLessons:      pathStats.perfectLessons     || 0,
    pathListenWriteCorrect:  pathStats.listenWriteCorrect || 0,
    pathMiddleConsonants2Done: !!pathStats.middleConsonants2Done,
    // #703 — consonant milestone achievements
    pathLowClassDone:      !!pathStats.lowClassDone,
    pathHighClassDone:     !!pathStats.highClassDone,
    pathFirstMasteryDone:  !!pathStats.firstMasteryDone,
    pathReplayPerfectDone: !!pathStats.replayPerfectDone,
    // #508 — onboarding tour secret achievements
    tourCompletedFull: !!(onboardingMeta?.done && onboardingMeta?.skipped === false),
    tourCompletedSkip: !!(onboardingMeta?.done && onboardingMeta?.skipped === true),
    // #556/#557 — tab exploration secret achievements
    visitedEventsTab,
    visitedProgressTab,
    // Issue #677 — daily reward achievements
    dailyRewardTickets,
    usedDailyDouble,
    // #701 — gameplay mechanic achievements
    comboCount:      extra.comboCount      || 0,
    perfectSessions: extra.perfectSessions || 0,
    // #702 — login bonus achievements
    loginBonusTotal:      extra.loginBonusTotal      || 0,
    loginBonusWeekFull:   extra.loginBonusWeekFull   || false,
    loginBonusGotStarlight: extra.loginBonusGotStarlight || false,
    loginBonusStreakDays: extra.loginBonusStreakDays  || 0,
  };
}

// Returns array of achievement ids that are currently unlocked
function getUnlockedIds(stats) {
  return ACHIEVEMENTS.filter(a => a.check(stats)).map(a => a.id);
}

// ---------------------------------------------------------------------------
// Sprint 9.4 — Weekly challenges
// ---------------------------------------------------------------------------
const WEEKLY_DONE_KEY = (wk) => `weekly-done:${wk}`;

// ISO week key: "2026-W27"
function getCurrentWeekKey() {
  const d = new Date();
  const utc = new Date(Date.UTC(d.getFullYear(), d.getMonth(), d.getDate()));
  utc.setUTCDate(utc.getUTCDate() + 4 - (utc.getUTCDay() || 7));
  const ys = new Date(Date.UTC(utc.getUTCFullYear(), 0, 1));
  const wn = Math.ceil((((utc - ys) / 86400000) + 1) / 7);
  return `${utc.getUTCFullYear()}-W${String(wn).padStart(2, "0")}`;
}

// #613 — weekly study time helpers
function getWeeklyStudyMs(log = []) {
  const weekDates = new Set(getCurrentWeekDates());
  return (log || []).filter(e => weekDates.has(e.date)).reduce((s, e) => s + (e.durationMs || 0), 0);
}
function fmtStudyTime(ms) {
  const totalMin = Math.floor(ms / 60000);
  const h = Math.floor(totalMin / 60);
  const m = totalMin % 60;
  if (h === 0) return `${m}m`;
  return m === 0 ? `${h}h` : `${h}h ${m}m`;
}

// All Mon–Sun dates of the current week as "YYYY-MM-DD"
function getCurrentWeekDates() {
  const now = new Date();
  const day = now.getDay() || 7;
  const mon = new Date(now);
  mon.setDate(now.getDate() - day + 1);
  return Array.from({ length: 7 }, (_, i) => {
    const d = new Date(mon);
    d.setDate(mon.getDate() + i);
    return `${d.getFullYear()}-${pad2(d.getMonth()+1)}-${pad2(d.getDate())}`;
  });
}

// Issue #374 — criterion/threshold added to every hardcoded entry (same
// fields teacher-created challenges already carry via buildCustomChallengeEntry)
// so the wc-card can show numeric X/Y progress. wc_st and wc_c3 have no
// single numeric stat behind them (pure boolean / derived from the other
// 3 cards) — left without criterion/threshold, wc-card just skips the
// progress line for those.
const CHALLENGE_POOL = [
  { id: "wc_p3", emoji: "🔥", title: "Three-Day Week",   desc: "Practice 3 different days this week",    color: "#E8A33D", criterion: "wPracticeDays", threshold: 3,  check: s => s.wPracticeDays >= 3 },
  { id: "wc_p5", emoji: "⚡", title: "Five Alive",        desc: "Practice 5 different days this week",    color: "#E8A33D", criterion: "wPracticeDays", threshold: 5,  check: s => s.wPracticeDays >= 5 },
  { id: "wc_st", emoji: "🗓", title: "Sunday Ritual",    desc: "Complete the Sunday Test this week",     color: "#8E6BAE", check: s => s.wSundayDone },
  { id: "wc_80", emoji: "💯", title: "Distinction",       desc: "Score 80%+ on Sunday Test this week",   color: "#8E6BAE", criterion: "wSundayScore",  threshold: 80, check: s => s.wSundayScore >= 80 },
  { id: "wc_w15",emoji: "📚", title: "Word Sprint",       desc: "Practice 15 different words this week", color: "#3D6FA8", criterion: "wWordsCount",   threshold: 15, check: s => s.wWordsCount >= 15 },
  { id: "wc_w30",emoji: "📖", title: "Word Marathon",     desc: "Practice 30 different words this week", color: "#3D6FA8", criterion: "wWordsCount",   threshold: 30, check: s => s.wWordsCount >= 30 },
  { id: "wc_ms", emoji: "⭐", title: "Long-Term Memory",  desc: "Have any word reach 14-day SRS",        color: "#2F6E5C", criterion: "wordsMastered", threshold: 1,  check: s => s.wordsMastered >= 1 },
  { id: "wc_m5", emoji: "🌟", title: "Mastery Five",      desc: "Have 5 words at 14-day SRS or more",    color: "#2F6E5C", criterion: "wordsMastered", threshold: 5,  check: s => s.wordsMastered >= 5 },
  { id: "wc_s7", emoji: "🏅", title: "Full Commitment",   desc: "Practice all 7 days this week",         color: "#C84B31", criterion: "wPracticeDays", threshold: 7,  check: s => s.wPracticeDays >= 7 },
  { id: "wc_c3", emoji: "👑", title: "Triple Crown",      desc: "Complete all 3 weekly challenges",      color: "#C84B31", check: s => s.wAllDone },
  // Group 1 — Path Mode: lessons, accuracy, energy (#858)
  { id: "wc_path1",   emoji: "📖", title: "First Steps",    desc: "Complete at least 1 lesson in Path Mode this week",    color: "#3D6FA8", criterion: "wPathLessons",  threshold: 1,   check: s => (s.wPathLessons  || 0) >= 1   },
  { id: "wc_path5",   emoji: "🗺️", title: "Trail Blazer",   desc: "Complete 5 lessons in Path Mode this week",            color: "#3D6FA8", criterion: "wPathLessons",  threshold: 5,   check: s => (s.wPathLessons  || 0) >= 5   },
  { id: "wc_acc80",   emoji: "🎯", title: "Sharpshooter",   desc: "Reach 80%+ accuracy in Path Mode this week",           color: "#2F6E5C", criterion: "wPathAccuracy", threshold: 80,  check: s => (s.wPathAccuracy || 0) >= 80  },
  { id: "wc_energy1", emoji: "⚡", title: "Full Send",       desc: "Spend 100+ energy in Path Mode this week",             color: "#C84B31", criterion: "wEnergySpent",  threshold: 100, check: s => (s.wEnergySpent  || 0) >= 100 },
  // Group 2 — Study time & replays (#858)
  { id: "wc_study30", emoji: "⏱️", title: "Study Habit",    desc: "Accumulate 30 minutes of study time this week",        color: "#8E6BAE", criterion: "weekStudyMin",  threshold: 30,  check: s => (s.weekStudyMin  || 0) >= 30  },
  { id: "wc_study60", emoji: "⏰", title: "Power Hour",      desc: "Accumulate 60 minutes of study time this week",        color: "#8E6BAE", criterion: "weekStudyMin",  threshold: 60,  check: s => (s.weekStudyMin  || 0) >= 60  },
  { id: "wc_replay",  emoji: "🔁", title: "Second Look",    desc: "Replay a completed lesson with 100% accuracy this week", color: "#2F6E5C", criterion: "wReplayPerfect", threshold: 1, check: s => (s.wReplayPerfect || 0) >= 1  },
  // Group 3 — Skills, gacha, coins (#858)
  { id: "wc_listen70",emoji: "🎧", title: "Keen Ear",        desc: "Reach 70%+ Listening accuracy in Path Mode this week", color: "#3D6FA8", criterion: "wListeningPct", threshold: 70,  check: s => (s.wListeningPct || 0) >= 70  },
  { id: "wc_write70", emoji: "✍️", title: "Pen Pusher",      desc: "Reach 70%+ Writing accuracy in Path Mode this week",   color: "#3D6FA8", criterion: "wWritingPct",   threshold: 70,  check: s => (s.wWritingPct   || 0) >= 70  },
  { id: "wc_perfect1",emoji: "💎", title: "Flawless",        desc: "Complete 1 perfect lesson in Path Mode this week",     color: "#C84B31", criterion: "wPerfectLessons", threshold: 1, check: s => (s.wPerfectLessons || 0) >= 1 },
  { id: "wc_gacha3",  emoji: "🎲", title: "Lucky Pull",      desc: "Make at least 3 gacha pulls this week",                color: "#8E6BAE", criterion: "wGachaPulls",   threshold: 3,   check: s => (s.wGachaPulls   || 0) >= 3   },
  { id: "wc_coins500",emoji: "💰", title: "Coin Collector",  desc: "Earn 500+ coins this week",                            color: "#D4AF37", criterion: "wCoinsEarned",  threshold: 500, check: s => (s.wCoinsEarned  || 0) >= 500 },
];

// Issue #235 — teacher-created challenges, no deploy needed. Each criterion
// type maps 1:1 to a numeric field already produced by computeWeeklyStats /
// computeMonthWeeklyStats, so "system suggests possibilities" = pick one of
// these instead of writing a free-form condition.
const WEEKLY_CRITERIA = [
  { key: "wPracticeDays",   label: "Practice this many different days this week",              unit: "days"    },
  { key: "wWordsCount",     label: "Practice this many different words this week",             unit: "words"   },
  { key: "wSundayScore",    label: "Score this % or higher on the Sunday Test this week",      unit: "%"       },
  { key: "wordsMastered",   label: "Have this many words reach 14-day SRS",                   unit: "words"   },
  // Group 1-3 criteria (#858)
  { key: "wPathLessons",    label: "Complete this many Path Mode lessons this week",           unit: "lessons" },
  { key: "wPathAccuracy",   label: "Reach this % accuracy or higher in Path Mode this week",  unit: "%"       },
  { key: "wEnergySpent",    label: "Spend this much energy in Path Mode this week",            unit: "energy"  },
  { key: "weekStudyMin",    label: "Accumulate this many minutes of study time this week",     unit: "min"     },
  { key: "wReplayPerfect",  label: "Replay this many completed lessons with 100% this week",  unit: "lessons" },
  { key: "wListeningPct",   label: "Reach this % Listening accuracy or higher this week",     unit: "%"       },
  { key: "wWritingPct",     label: "Reach this % Writing accuracy or higher this week",       unit: "%"       },
  { key: "wPerfectLessons", label: "Get this many perfect lessons in Path Mode this week",    unit: "lessons" },
  { key: "wGachaPulls",     label: "Make this many gacha pulls this week",                    unit: "pulls"   },
  { key: "wCoinsEarned",    label: "Earn this many coins this week",                          unit: "coins"   },
];
const MONTHLY_CRITERIA = [
  { key: "weeksAllThreeDone",   label: "Close the Triple Crown in this many different weeks this month", unit: "weeks"      },
  { key: "totalChallengesDone", label: "Complete this many weekly challenges this month (any week)",     unit: "challenges" },
  // #859/#860 — daily-log based monthly criteria
  { key: "mGACoins",       label: "Earn this many coins during Golden Abundance this month",     unit: "coins" },
  { key: "mOvernightCoins",label: "Accumulate this many coins from Overnight Interest this month", unit: "coins" },
];

const CUSTOM_CHALLENGES_KEY  = "custom-challenges";   // shared KV: { weekly: [...], monthly: [...] }
const CHALLENGE_SCHEDULE_KEY = "challenge-schedule";  // shared KV: #854 teacher scheduler
let _customWeeklyChallengeCache  = [];
let _customMonthlyChallengeCache = [];
let _challengeScheduleCache      = null; // { weeks:{[wk]:{challenges:[{id,reward}],weekReward}}, months:{[mk]:{challengeId,streakGate}} }

async function refreshChallengeScheduleCache() {
  _challengeScheduleCache = (await storageGet(CHALLENGE_SCHEDULE_KEY, true)) || { weeks: {}, months: {} };
  return _challengeScheduleCache;
}

function getMonthStreakGate(monthKey) {
  return _challengeScheduleCache?.months?.[monthKey]?.streakGate ?? MONTHLY_CAT_GATE_STREAK;
}

function slugifyChallengeTitle(title) {
  return (title || "")
    .normalize("NFD").replace(/[\u0300-\u036f]/g, "")
    .trim().toLowerCase().replace(/[^a-z0-9]+/g, "-").replace(/^-+|-+$/g, "") || "challenge";
}

function buildCustomChallengeEntry(kind, raw) {
  const criteria = kind === "weekly" ? WEEKLY_CRITERIA : MONTHLY_CRITERIA;
  const crit = criteria.find(c => c.key === raw.criterion);
  return {
    id: raw.id,
    emoji: raw.emoji || "🎯",
    title: raw.title,
    desc: raw.desc || (crit ? `${crit.label.replace("this many", raw.threshold).replace("this % or higher", `${raw.threshold}%+`)}` : raw.title),
    color: "#2F6E5C",
    criterion: raw.criterion,
    threshold: raw.threshold,
    isCustom: true,
    check: s => (s[raw.criterion] || 0) >= raw.threshold,
  };
}

async function getCustomChallenges() {
  return (await storageGet(CUSTOM_CHALLENGES_KEY, true)) || { weekly: [], monthly: [] };
}

async function refreshCustomChallengeCache() {
  const data = await getCustomChallenges();
  _customWeeklyChallengeCache = (data.weekly || []).map(r => buildCustomChallengeEntry("weekly", r));
  _customMonthlyChallengeCache = (data.monthly || []).map(r => buildCustomChallengeEntry("monthly", r));
  return data;
}

// Issue #235 — "does not allow duplicates": same id, OR same criterion+threshold,
// checked against both the hardcoded pool and every other custom challenge of
// that kind. Throws a teacher-facing Error, same convention as validateCustomAvatarData.
function validateCustomChallengeData(kind, data, { existingId } = {}) {
  if (!data?.title?.trim()) throw new Error("Title is required.");
  const criteria = kind === "weekly" ? WEEKLY_CRITERIA : MONTHLY_CRITERIA;
  const crit = criteria.find(c => c.key === data.criterion);
  if (!crit) throw new Error("Choose a valid criterion.");
  const threshold = Number(data.threshold);
  if (!Number.isFinite(threshold) || threshold <= 0) throw new Error("Enter a valid threshold greater than 0.");
  const hardcodedPool = kind === "weekly" ? CHALLENGE_POOL : MONTHLY_CHALLENGE_POOL;
  const customPool = kind === "weekly" ? _customWeeklyChallengeCache : _customMonthlyChallengeCache;
  const id = existingId || `custom_${kind}_${slugifyChallengeTitle(data.title)}`;
  const dupId = hardcodedPool.some(c => c.id === id) || customPool.some(c => c.id === id && c.id !== existingId);
  if (dupId) throw new Error(`A challenge with id "${id}" already exists — try a different title.`);
  const dupCriterion = [...hardcodedPool, ...customPool].some(c =>
    c.id !== existingId && c.criterion === data.criterion && Number(c.threshold) === threshold
  );
  if (dupCriterion) throw new Error("A challenge with this exact criterion and threshold already exists.");
  return id;
}

async function addCustomChallenge(kind, data) {
  const id = validateCustomChallengeData(kind, data);
  const store = await getCustomChallenges();
  const entry = { id, title: data.title.trim(), desc: data.desc?.trim() || "", emoji: data.emoji || "🎯", criterion: data.criterion, threshold: Number(data.threshold) };
  const next = { ...store, [kind]: [...(store[kind] || []), entry] };
  await storageSet(CUSTOM_CHALLENGES_KEY, next, true);
  await refreshCustomChallengeCache();
  return entry;
}

async function removeCustomChallenge(kind, id) {
  const store = await getCustomChallenges();
  const next = { ...store, [kind]: (store[kind] || []).filter(c => c.id !== id) };
  await storageSet(CUSTOM_CHALLENGES_KEY, next, true);
  await refreshCustomChallengeCache();
}

// Pick 3 challenges for a given week (deterministic rotation, no duplicates)
// #861 — reconstruct a challenge from an inline custom slot (no pool entry needed)
function resolveScheduledChallenge(sc, fullPool) {
  const base = fullPool.find(c => c.id === sc.id);
  if (base) return { ...base, customReward: sc.reward || null };
  // inline custom (built via Custom Builder, not in any pool)
  if (sc.criterion && sc.threshold != null) {
    return {
      id: sc.id,
      emoji: sc.emoji || "🎯",
      title: sc.title || "Custom Challenge",
      desc: sc.desc || sc.title || "Custom Challenge",
      color: "#2F6E5C",
      criterion: sc.criterion,
      threshold: Number(sc.threshold),
      isCustom: true,
      check: s => (s[sc.criterion] || 0) >= Number(sc.threshold),
      customReward: sc.reward || null,
    };
  }
  return null;
}

function getWeekChallenges(weekKey) {
  // #854 — teacher schedule takes priority over automatic rotation
  const scheduled = _challengeScheduleCache?.weeks?.[weekKey];
  if (scheduled?.challenges?.length === 3) {
    const fullPool = [...CHALLENGE_POOL, ..._customWeeklyChallengeCache];
    const resolved = scheduled.challenges.map(sc => resolveScheduledChallenge(sc, fullPool)).filter(Boolean);
    if (resolved.length === 3) return resolved;
  }
  // fallback — automatic rotation
  const wn  = parseInt(weekKey.split("-W")[1], 10);
  const pool = [...CHALLENGE_POOL.filter(c => c.id !== "wc_c3"), ..._customWeeklyChallengeCache];
  const picks = [];
  for (let offset = 0; picks.length < 3; offset++) {
    const c = pool[(wn * 7 + offset * 3) % pool.length];
    if (!picks.find(p => p.id === c.id)) picks.push(c);
  }
  return picks;
}

// Compute weekly stats from existing data
function computeWeeklyStats(progMap, stHistory, achStats, {
  gachaWeekLog = [], coinsWeekLog = [],
  sessionTimeLog = [], energySpendLog = [],
  pathLessonsLog = [], pathAccuracyLog = [], pathSkillLog = [], pathReplayLog = [],
} = {}) {
  const weekSet = new Set(getCurrentWeekDates());
  const entries = Object.values(progMap);

  const wPracticeDays = new Set(
    entries.filter(p => p.lastDate && weekSet.has(p.lastDate)).map(p => p.lastDate)
  ).size;

  const wWordsCount = entries.filter(p => p.lastDate && weekSet.has(p.lastDate)).length;

  const weekTests  = stHistory.filter(s => weekSet.has(s.date));
  const wSundayDone  = weekTests.length > 0;
  const wSundayScore = weekTests.length > 0
    ? Math.max(...weekTests.map(s => {
        const r = Object.values(s.results || {});
        return r.length ? Math.round(r.filter(x => x.correct).length / r.length * 100) : 0;
      }))
    : 0;

  // #855 — gacha pulls this week
  const wGachaPulls = gachaWeekLog
    .filter(e => weekSet.has(e.date))
    .reduce((s, e) => s + (e.pulls || 0), 0);

  // #856 — coins earned this week
  const wCoinsEarned = coinsWeekLog
    .filter(e => weekSet.has(e.date))
    .reduce((s, e) => s + (e.amount || 0), 0);

  // #858 Group 1 — Path lessons, accuracy, energy
  const wPathLessons = pathLessonsLog
    .filter(e => weekSet.has(e.date))
    .reduce((s, e) => s + (e.count || 0), 0);

  const weekAccEntries = pathAccuracyLog.filter(e => weekSet.has(e.date));
  const accCorrect = weekAccEntries.reduce((s, e) => s + (e.correct || 0), 0);
  const accTotal   = weekAccEntries.reduce((s, e) => s + (e.total   || 0), 0);
  const wPathAccuracy   = accTotal > 0 ? Math.round(accCorrect / accTotal * 100) : 0;
  const wPerfectLessons = weekAccEntries.filter(e => (e.total || 0) > 0 && e.correct === e.total).length;

  const wEnergySpent = energySpendLog
    .filter(e => weekSet.has(e.date))
    .reduce((s, e) => s + (e.amount || 0), 0);

  // #858 Group 2 — Study time, replays
  const weekStudyMin = Math.round(
    sessionTimeLog
      .filter(e => weekSet.has(e.date))
      .reduce((s, e) => s + (e.durationMs || 0), 0) / 60000
  );

  const wReplayPerfect = pathReplayLog
    .filter(e => weekSet.has(e.date))
    .reduce((s, e) => s + (e.count || 0), 0);

  // #858 Group 3 — Listening / Writing accuracy
  const weekSkillEntries = pathSkillLog.filter(e => weekSet.has(e.date));
  const listenCorrect = weekSkillEntries.reduce((s, e) => s + (e.listenCorrect || 0), 0);
  const listenTotal   = weekSkillEntries.reduce((s, e) => s + (e.listenTotal   || 0), 0);
  const writeCorrect  = weekSkillEntries.reduce((s, e) => s + (e.writeCorrect  || 0), 0);
  const writeTotal    = weekSkillEntries.reduce((s, e) => s + (e.writeTotal    || 0), 0);
  const wListeningPct = listenTotal > 0 ? Math.round(listenCorrect / listenTotal * 100) : 0;
  const wWritingPct   = writeTotal  > 0 ? Math.round(writeCorrect  / writeTotal  * 100) : 0;

  return {
    wPracticeDays, wWordsCount, wSundayDone, wSundayScore,
    wordsMastered: achStats.wordsMastered,
    wGachaPulls, wCoinsEarned,
    wPathLessons, wPathAccuracy, wPerfectLessons, wEnergySpent,
    weekStudyMin, wReplayPerfect,
    wListeningPct, wWritingPct,
    wAllDone: false, // filled in after checking the 3 challenges
  };
}

// ---------------------------------------------------------------------------
// Issue #181 — "Gatinho do Mês" monthly challenge (built on top of Weekly
// Challenges, Sprint 9.4 — weekly challenges themselves are unchanged).
// ---------------------------------------------------------------------------
function getMonthKey(d = new Date()) {
  return `${d.getFullYear()}-${pad2(d.getMonth() + 1)}`;
}

// Issue #384 — first moment (local midnight) of the month AFTER `monthKey`,
// i.e. the exact instant the Cat of the Month's acquisition window closes.
// `monthKey` is "YYYY-MM" (1-indexed month); `new Date(year, month, 1)`
// with the un-decremented month index already lands on day 1 of the next
// calendar month (Date's month param is 0-indexed), so no manual +1 needed.
function getMonthKeyEnd(monthKey) {
  const [y, m] = monthKey.split("-").map(Number);
  return new Date(y, m, 1, 0, 0, 0, 0);
}

// "3d 14h" / "6h" / "Ending soon" — deliberately coarse (days+hours, no
// minutes) since this is a heads-up, not a precise timer.
function formatCountdown(targetDate, now = new Date()) {
  const diffMs = targetDate.getTime() - now.getTime();
  if (diffMs <= 0) return "Ending soon";
  const totalHours = Math.floor(diffMs / (1000 * 60 * 60));
  const days = Math.floor(totalHours / 24);
  const hours = totalHours % 24;
  return days > 0 ? `${days}d ${hours}h` : `${hours}h`;
}

// Same ISO-week math as getCurrentWeekKey, generalized to any date, and also
// returning the week's Thursday — used to decide which calendar month a
// given week "belongs to" (ISO convention: a week belongs to the month/year
// containing its Thursday, exactly like ISO week-numbering assigns a week
// to a year via its Thursday).
function getISOWeekInfoForDate(d) {
  const utc = new Date(Date.UTC(d.getFullYear(), d.getMonth(), d.getDate()));
  utc.setUTCDate(utc.getUTCDate() + 4 - (utc.getUTCDay() || 7));
  const ys = new Date(Date.UTC(utc.getUTCFullYear(), 0, 1));
  const wn = Math.ceil((((utc - ys) / 86400000) + 1) / 7);
  return { weekKey: `${utc.getUTCFullYear()}-W${String(wn).padStart(2, "0")}`, thursday: utc };
}

// All ISO week keys that belong to a given "YYYY-MM" month (via the
// Thursday-ownership rule above) — used to aggregate WEEKLY_DONE_KEY across
// a whole month without any new per-week bookkeeping.
function getWeekKeysForMonth(monthKey) {
  const [y, m] = monthKey.split("-").map(Number); // m is 1-12
  const first = new Date(y, m - 1, 1);
  const last  = new Date(y, m, 0);
  const keys  = new Set();
  for (let d = new Date(first); d <= last; d.setDate(d.getDate() + 1)) {
    const { weekKey, thursday } = getISOWeekInfoForDate(d);
    if (thursday.getUTCFullYear() === y && thursday.getUTCMonth() === m - 1) keys.add(weekKey);
  }
  return [...keys];
}

// Aggregates WEEKLY_DONE_KEY across every week owned by monthKey. Each week
// always offers exactly 3 non-wc_c3 challenges (see getWeekChallenges), so
// "all 3 done" and "done count" are directly comparable across weeks.
async function computeMonthWeeklyStats(monthKey) {
  const weekKeys = getWeekKeysForMonth(monthKey);
  let weeksAllThreeDone = 0, totalChallengesDone = 0, weeksWithAtLeastOne = 0;
  for (const wk of weekKeys) {
    const done = await storageGet(WEEKLY_DONE_KEY(wk), false) || [];
    totalChallengesDone += done.length;
    if (done.length >= 3) weeksAllThreeDone++;
    if (done.length >= 1) weeksWithAtLeastOne++;
  }
  return { weeksAllThreeDone, totalChallengesDone, weeksWithAtLeastOne, totalWeeks: weekKeys.length };
}

// #859/#860 — sum daily-log entries for a given "YYYY-MM" month
async function computeMonthlyLogStats(monthKey) {
  const [y, m] = monthKey.split("-").map(Number);
  const prefix = `${y}-${String(m).padStart(2, "0")}`;
  const [gaLog, overnightLog] = await Promise.all([
    storageGet(GA_COINS_LOG_KEY, false),
    storageGet(OVERNIGHT_COINS_LOG_KEY, false),
  ]);
  const monthFilter = e => (e.date || "").startsWith(prefix);
  const mGACoins       = (gaLog || []).filter(monthFilter).reduce((s, e) => s + (e.amount || 0), 0);
  const mOvernightCoins = (overnightLog || []).filter(monthFilter).reduce((s, e) => s + (e.amount || 0), 0);
  return { mGACoins, mOvernightCoins };
}

// Issue #181 pool — the 2nd, "sorteado" criterion on top of the mandatory
// 14-day streak gate (see computeAndSaveStreak's MONTH_STREAK_BEST_KEY).
// Issue #375 — criterion/threshold added (same idea as #374) so the mc-card
// can show numeric progress on the 2nd (drawn) criterion, not just the
// mandatory streak gate. mc_nozero compares two stats (weeksWithAtLeastOne
// vs totalWeeks) instead of one vs a fixed threshold, so it's left without
// criterion/threshold — the mc-card falls back to showing that pair directly.
const MONTHLY_CHALLENGE_POOL = [
  { id: "mc_2weeks",  desc: "Complete all 3 weekly challenges in at least 2 different weeks this month",
    criterion: "weeksAllThreeDone", threshold: 2, check: s => s.weeksAllThreeDone >= 2 },
  { id: "mc_6total",  desc: "Complete at least 6 weekly challenges (any week) this month",
    criterion: "totalChallengesDone", threshold: 6, check: s => s.totalChallengesDone >= 6 },
  { id: "mc_crown1",  desc: "Close the Triple Crown at least once this month",
    criterion: "weeksAllThreeDone", threshold: 1, check: s => s.weeksAllThreeDone >= 1 },
  { id: "mc_nozero",  desc: "Complete at least 1 weekly challenge in every week this month",
    check: s => s.totalWeeks > 0 && s.weeksWithAtLeastOne === s.totalWeeks },
  // #859 — Golden Abundance monthly challenge
  { id: "mc_ga_coins", emoji: "✨", desc: "Earn 1000+ coins during the Golden Abundance event this month",
    criterion: "mGACoins", threshold: 1000, check: s => (s.mGACoins || 0) >= 1000 },
  // #860 — Overnight Interest monthly challenge
  { id: "mc_overnight", emoji: "💤", desc: "Accumulate 500+ coins from Overnight Interest this month",
    criterion: "mOvernightCoins", threshold: 500, check: s => (s.mOvernightCoins || 0) >= 500 },
];

// Deterministic pick of 1 monthly criterion per monthKey (same rotation
// spirit as getWeekChallenges, but drawing 1 instead of 3).
function getMonthChallenge(monthKey) {
  // #854/#861/#863 — teacher schedule takes priority over automatic rotation
  const scheduled = _challengeScheduleCache?.months?.[monthKey];
  if (scheduled) {
    // #863 — multi-challenge: challengeIds[] (up to 3). Legacy single challengeId also handled.
    const ids = scheduled.challengeIds?.length ? scheduled.challengeIds : (scheduled.challengeId ? [scheduled.challengeId] : []);
    if (ids.length > 0) {
      const pool = [...MONTHLY_CHALLENGE_POOL, ..._customMonthlyChallengeCache];
      const resolved = ids.map(id => {
        const found = pool.find(c => c.id === id);
        if (found) return found;
        // inline custom
        if (scheduled.criterion && scheduled.threshold != null) {
          return { id, emoji: scheduled.emoji || "🎯", desc: scheduled.title || "Custom Monthly Challenge", criterion: scheduled.criterion, threshold: Number(scheduled.threshold), isCustom: true, check: s => (s[scheduled.criterion] || 0) >= Number(scheduled.threshold) };
        }
        return null;
      }).filter(Boolean);
      if (resolved.length > 0) return resolved[0]; // getMonthChallenge returns first for backward compat
    }
  }
  // fallback — automatic rotation
  const pool = [...MONTHLY_CHALLENGE_POOL, ..._customMonthlyChallengeCache];
  const [y, m] = monthKey.split("-").map(Number);
  const idx = (y * 12 + m) % pool.length;
  return pool[idx];
}

// #863 — returns ALL monthly challenges (1–3) for a given month key
function getMonthChallenges(monthKey) {
  const scheduled = _challengeScheduleCache?.months?.[monthKey];
  if (scheduled) {
    const ids = scheduled.challengeIds?.length ? scheduled.challengeIds : (scheduled.challengeId ? [scheduled.challengeId] : []);
    if (ids.length > 0) {
      const pool = [...MONTHLY_CHALLENGE_POOL, ..._customMonthlyChallengeCache];
      const resolved = ids.map(id => {
        const found = pool.find(c => c.id === id);
        if (found) return found;
        if (scheduled.criterion && scheduled.threshold != null)
          return { id, emoji: scheduled.emoji || "🎯", desc: scheduled.title || "Custom Monthly Challenge", criterion: scheduled.criterion, threshold: Number(scheduled.threshold), isCustom: true, check: s => (s[scheduled.criterion] || 0) >= Number(scheduled.threshold) };
        return null;
      }).filter(Boolean);
      if (resolved.length > 0) return resolved;
    }
  }
  return [getMonthChallenge(monthKey)]; // fallback single
}

const MONTH_STREAK_BEST_KEY = (mk) => `month-streak-best:${mk}`; // personal: highest streak.count reached within that month
const MONTHLY_CAT_GATE_STREAK = 10; // reduced from 14 for July 2026 — students lost days due to updates

// ---------------------------------------------------------------------------
// Issue #351.1 — "Solstice Ticket" special banner schedule + featured config.
// Genshin/HSR-style limited banner built on top of the Gatinho do Mês system
// (#181): each banner runs a short window around a "magic date" (dd/mm where
// day === month, e.g. 8/8, 9/9) and features the Cat of the Month from the
// PREVIOUS month (that month's own cat is still mid-challenge) + 2 rate-up
// Rares. Ships starting with the August 2026 banner — July's window is
// already in progress and explicitly excluded (Bruno, 2026-07-09).
// ---------------------------------------------------------------------------

// Confirmed against Bruno's full table (2026-07-08) — every one of the 12
// regular monthly windows is exactly "day=month, month=month" ± 2 days.
function getMagicDateWindow(monthNum, year) {
  const magic = new Date(year, monthNum - 1, monthNum); // e.g. month 1 -> Jan 1st; rolls correctly across year boundaries via Date's own arithmetic
  const start = new Date(magic); start.setDate(start.getDate() - 2);
  const end   = new Date(magic); end.setDate(end.getDate() + 2);
  return { start, end };
}

// Manual, non-formulaic override — the App Birthday special (28/06–04/07,
// every year), sitting between June's and July's regular windows without
// overlapping either.
const BIRTHDAY_BANNER_WINDOW = { startMonth: 6, startDay: 28, endMonth: 7, endDay: 4 };

function dateOnly(d) { return new Date(d.getFullYear(), d.getMonth(), d.getDate()).getTime(); }
function dateInWindow(d, start, end) { const t = dateOnly(d); return t >= dateOnly(start) && t <= dateOnly(end); }

// Launch guard — banners start with 2026-08; anything before that (namely
// the in-progress July window) never counts as "launched". String compare
// works because both regular ("YYYY-MM") and birthday ("YYYY-birthday")
// keys sort correctly against "2026-08" lexically.
const BANNER_LAUNCH_KEY = "2026-08";
function isBannerLaunched(bannerKey) { return bannerKey >= BANNER_LAUNCH_KEY; }

// Cat of the Month for `monthKey` M is automatically the featured Legendary
// for the M+2 banner. Corrected 2026-07-09 (owner decision) from the
// originally-shipped M+1 rule documented in #351/#377 — M+1 would still be
// mid-contest by the time its own banner window opens (the following
// month's streak challenge only wraps at month-end), so the catch-up
// window needs a full extra month of buffer: M+2 guarantees M's challenge
// has been over and settled for a while before it's offered again here.
function getFeaturedBannerKeyForMonthCat(monthKey) {
  const [y, m] = monthKey.split("-").map(Number); // m is 1-indexed
  const zeroIdx = (m - 1) + 2; // M+2, 0-indexed, may overflow past 11
  const targetY = y + Math.floor(zeroIdx / 12);
  const targetM = (zeroIdx % 12) + 1;
  return `${targetY}-${pad2(targetM)}`;
}

// Returns { bannerKey, windowStart, windowEnd, featuredMonthKey } for the
// banner active on `date`, or null if none is running. featuredMonthKey is
// null for the Birthday special (no M-1 rule applies — teacher picks the
// featured Legendary manually for that one, same admin config as the Rares).
function getActiveBanner(date = new Date()) {
  const year = date.getFullYear();

  const bStart = new Date(year, BIRTHDAY_BANNER_WINDOW.startMonth - 1, BIRTHDAY_BANNER_WINDOW.startDay);
  const bEnd   = new Date(year, BIRTHDAY_BANNER_WINDOW.endMonth - 1, BIRTHDAY_BANNER_WINDOW.endDay);
  if (dateInWindow(date, bStart, bEnd)) {
    return { bannerKey: `${year}-birthday`, windowStart: bStart, windowEnd: bEnd, featuredMonthKey: null };
  }

  // Check neighboring years too — January's window starts in December of
  // the previous year, December's can spill into next January.
  for (const y of [year - 1, year, year + 1]) {
    for (let m = 1; m <= 12; m++) {
      const { start, end } = getMagicDateWindow(m, y);
      if (dateInWindow(date, start, end)) {
        const bannerKey = `${y}-${pad2(m)}`;
        // M-2 rule (corrected 2026-07-09, see getFeaturedBannerKeyForMonthCat
        // above for the full rationale) — was M-1 (m - 2, 0-indexed) at launch.
        const prevMonthDate = new Date(y, m - 3, 1); // month m-2, 0-indexed
        const featuredMonthKey = getMonthKey(prevMonthDate);
        return { bannerKey, windowStart: start, windowEnd: end, featuredMonthKey };
      }
    }
  }
  return null;
}

// Teacher-configured featured Rares per banner (up to 2), shared KV so it's
// visible/editable from the admin panel, same storage pattern as every
// other teacher config in this app (enabledClassCodes, custom-challenges…).
const BANNER_FEATURED_RARES_KEY      = (bannerKey) => `banner-featured-rares:${bannerKey}`;
const BANNER_ART_KEY                 = (bannerKey) => `gacha-banner-art:${bannerKey}`;
const BANNER_ART_H_KEY               = (bannerKey) => `gacha-banner-art-h:${bannerKey}`;
const BANNER_ART_V_KEY               = (bannerKey) => `gacha-banner-art-v:${bannerKey}`;

async function getBannerArt(bannerKey) {
  return (await storageGet(BANNER_ART_KEY(bannerKey), true)) || null;
}
async function setBannerArt(bannerKey, url) {
  return storageSet(BANNER_ART_KEY(bannerKey), url || null, true);
}
async function getBannerArtOriented(bannerKey) {
  const [h, v, legacy] = await Promise.all([
    storageGet(BANNER_ART_H_KEY(bannerKey), true),
    storageGet(BANNER_ART_V_KEY(bannerKey), true),
    storageGet(BANNER_ART_KEY(bannerKey), true),
  ]);
  return { horizontal: h || null, vertical: v || null, legacy: legacy || null };
}
async function setBannerArtOriented(bannerKey, { horizontal, vertical }) {
  await Promise.all([
    storageSet(BANNER_ART_H_KEY(bannerKey), horizontal || null, true),
    storageSet(BANNER_ART_V_KEY(bannerKey), vertical || null, true),
  ]);
}

async function getBannerFeaturedRares(bannerKey) {
  return (await storageGet(BANNER_FEATURED_RARES_KEY(bannerKey), true)) || [];
}

async function setBannerFeaturedRares(bannerKey, avatarIds) {
  if (!Array.isArray(avatarIds) || avatarIds.length > 2) throw new Error("Pick up to 2 Rare avatars.");
  const catalog = getFullAvatarCatalog();
  for (const id of avatarIds) {
    const av = catalog.find((a) => a.id === id);
    if (!av || av.rarity !== "rare") throw new Error(`${id} is not a Rare avatar.`);
  }
  return storageSet(BANNER_FEATURED_RARES_KEY(bannerKey), avatarIds, true);
}

// Deterministic fallback (seeded by bannerKey, so it's stable across
// reloads instead of re-rolling every render) — same rotation spirit as
// getMonthChallenge/getWeekChallenges — used when the teacher hasn't
// configured 2 featured Rares for this banner in time.
function getFallbackFeaturedRares(bannerKey, catalog = getFullAvatarCatalog()) {
  const rares = catalog.filter((a) => a.rarity === "rare");
  if (rares.length <= 2) return rares.map((a) => a.id);
  let seed = 0;
  for (const ch of bannerKey) seed = (seed * 31 + ch.charCodeAt(0)) >>> 0;
  const idx1 = seed % rares.length;
  let idx2 = Math.floor(seed / 256) % rares.length;
  if (idx2 === idx1) idx2 = (idx2 + 1) % rares.length;
  return [rares[idx1].id, rares[idx2].id];
}

// What #351.3's draw engine actually uses — teacher's picks first, filled
// in with the deterministic fallback if fewer than 2 were configured.
async function getEffectiveBannerFeaturedRares(bannerKey) {
  const configured = await getBannerFeaturedRares(bannerKey);
  const merged = [...configured];
  for (const id of getFallbackFeaturedRares(bannerKey)) {
    if (merged.length >= 2) break;
    if (!merged.includes(id)) merged.push(id);
  }
  return merged.slice(0, 2);
}

// Issue #379 — every regular monthly banner gets its featured Legendary for
// free from the M-1 Cat of the Month rule (#377's featuredMonthKey). Only
// the Birthday special has no such rule and needs its own admin override —
// #377's own comment already flagged this ("teacher picks featured
// Legendary manually for that one, same admin config as the Rares"), it
// just hadn't been built yet. Same shared-KV + deterministic-fallback shape
// as getBannerFeaturedRares/getFallbackFeaturedRares above, just for a
// single Legendary instead of up to 2 Rares.
const BANNER_FEATURED_LEGENDARY_KEY = (bannerKey) => `banner-featured-legendary:${bannerKey}`;

async function getBannerFeaturedLegendaryOverride(bannerKey) {
  return await storageGet(BANNER_FEATURED_LEGENDARY_KEY(bannerKey), true);
}

async function setBannerFeaturedLegendary(bannerKey, avatarId) {
  const catalog = getFullAvatarCatalog();
  const av = catalog.find((a) => a.id === avatarId);
  if (!av || av.rarity !== "legendary") throw new Error(`${avatarId} is not a Legendary avatar.`);
  return storageSet(BANNER_FEATURED_LEGENDARY_KEY(bannerKey), avatarId, true);
}

function getFallbackFeaturedLegendary(bannerKey, catalog = getFullAvatarCatalog()) {
  const legendaries = catalog.filter((a) => a.rarity === "legendary");
  if (legendaries.length === 0) return null;
  let seed = 0;
  for (const ch of bannerKey) seed = (seed * 31 + ch.charCodeAt(0)) >>> 0;
  return legendaries[seed % legendaries.length];
}

// featuredMonthKey is null only for the Birthday banner (#377) — every
// regular monthly banner always resolves via the Cat of the Month directly,
// never touching the override/fallback path at all.
async function getEffectiveBannerFeaturedLegendary(bannerKey, featuredMonthKey, catalog = getFullAvatarCatalog()) {
  if (featuredMonthKey) return getMonthlyCatAvatar(featuredMonthKey, catalog);
  const overrideId = await getBannerFeaturedLegendaryOverride(bannerKey);
  if (overrideId) {
    const av = catalog.find((a) => a.id === overrideId);
    if (av) return av;
  }
  return getFallbackFeaturedLegendary(bannerKey, catalog);
}

// ---------------------------------------------------------------------------
// Issue #551/#552 — Events tab data layer
// ---------------------------------------------------------------------------

// Golden Abundance window: 3rd Sunday @ 06:00 → 4th Sunday @ 22:00 local time.
// Returns the nearest window that hasn't fully passed yet (current or next).
function getGoldenAbundanceWindow(date) {
  function getNthSunday(year, month, n) {
    let count = 0;
    for (let d = 1; d <= 31; d++) {
      const day = new Date(year, month, d);
      if (day.getMonth() !== month) break;
      if (day.getDay() === 0 && ++count === n) return day;
    }
    return null;
  }
  const year = date.getFullYear();
  const month = date.getMonth();
  for (let i = 0; i < 3; i++) {
    const m = (month + i) % 12;
    const y = month + i >= 12 ? year + 1 : year;
    const sun3 = getNthSunday(y, m, 3);
    const sun4 = getNthSunday(y, m, 4);
    if (!sun3 || !sun4) continue;
    const start = new Date(sun3); start.setHours(6, 0, 0, 0);
    const end   = new Date(sun4); end.setHours(22, 0, 0, 0);
    if (end > date) return { start, end };
  }
  return null;
}

function isGoldenAbundanceActive() {
  const w = getGoldenAbundanceWindow(new Date());
  if (!w) return false;
  const now = new Date();
  return now >= w.start && now <= w.end;
}

const EVENT_FORCE_KEY    = (id) => `event-force-visible:${id}`;
const EVENT_BANNER_H_KEY = (id) => `event-banner-h:${id}`;
const EVENT_BANNER_V_KEY = (id) => `event-banner-v:${id}`;

// Returns the next banner that hasn't ended yet (active OR upcoming).
// getActiveBanner only matches dates INSIDE a window; this also catches
// windows that start in the future, so the Solstice Banner appears in
// "Upcoming Events" between two windows (e.g. Jul 13 → Aug 6 gap).
function getNextOrActiveBanner(date = new Date()) {
  const active = getActiveBanner(date);
  if (active) return active;
  // Scan forward up to 6 months to find the next window
  const year = date.getFullYear();
  const candidates = [];
  for (const y of [year, year + 1]) {
    for (let m = 1; m <= 12; m++) {
      const { start, end } = getMagicDateWindow(m, y);
      const key = `${y}-${pad2(m)}`;
      if (end > date && isBannerLaunched(key)) {
        candidates.push({ bannerKey: key, windowStart: start, windowEnd: end, featuredMonthKey: null });
      }
    }
  }
  candidates.sort((a, b) => a.windowStart - b.windowStart);
  return candidates[0] || null;
}

// Returns all event occurrences for the next 6 months, each with a unique id.
// Multiple entries per event type allow the teacher to configure banners in
// advance; active-event filters elsewhere (Home grid, popup) are unaffected
// because they already filter by window dates.
function getEventsRegistry(now = new Date()) {
  const events = [];
  const cutoff = new Date(now.getFullYear(), now.getMonth() + 6, now.getDate());

  // Solstice Banners — every launched window that hasn't fully ended yet
  const seenBanners = new Set();
  const activeB = getActiveBanner(now);
  if (activeB && !seenBanners.has(activeB.bannerKey)) {
    seenBanners.add(activeB.bannerKey);
    events.push({
      id: `gacha-banner-${activeB.bannerKey}`,
      name: "Solstice Ticket",
      subtitle: "Legendary Avatar Event",
      color: "#E8557A", icon: "🎫",
      category: "GACHA",
      calendarImg: "/tickets/solstice-ticket.png",
      calendarImgSide: "right",
      calendarGradient: "linear-gradient(135deg, #F3889C 0%, #3F0916 100%)",
      window: { start: activeB.windowStart, end: activeB.windowEnd },
      bannerKey: activeB.bannerKey,
      useLegacyBannerArt: true,
    });
  }
  for (const y of [now.getFullYear(), now.getFullYear() + 1]) {
    // Birthday banner
    const bStart = new Date(y, BIRTHDAY_BANNER_WINDOW.startMonth - 1, BIRTHDAY_BANNER_WINDOW.startDay);
    const bEnd   = new Date(y, BIRTHDAY_BANNER_WINDOW.endMonth   - 1, BIRTHDAY_BANNER_WINDOW.endDay);
    const bKey   = `${y}-birthday`;
    if (bEnd > now && bStart < cutoff && isBannerLaunched(bKey) && !seenBanners.has(bKey)) {
      seenBanners.add(bKey);
      events.push({
        id: `gacha-banner-${bKey}`,
        name: "Solstice Ticket",
        subtitle: "Legendary Avatar Event",
        color: "#E8557A", icon: "🎫",
        category: "GACHA",
        calendarImg: "/tickets/solstice-ticket.png",
        calendarImgSide: "right",
        calendarGradient: "linear-gradient(135deg, #F3889C 0%, #3F0916 100%)",
        window: { start: bStart, end: bEnd },
        bannerKey: bKey,
        useLegacyBannerArt: true,
      });
    }
    // Regular monthly banners
    for (let m = 1; m <= 12; m++) {
      const { start, end } = getMagicDateWindow(m, y);
      const key = `${y}-${pad2(m)}`;
      if (end > now && start < cutoff && isBannerLaunched(key) && !seenBanners.has(key)) {
        seenBanners.add(key);
        events.push({
          id: `gacha-banner-${key}`,
          name: "Solstice Ticket",
          subtitle: "Legendary Avatar Event",
          color: "#E8557A", icon: "🎫",
          category: "GACHA",
          calendarImg: "/tickets/solstice-ticket.png",
          calendarImgSide: "right",
          calendarGradient: "linear-gradient(135deg, #F3889C 0%, #3F0916 100%)",
          window: { start, end },
          bannerKey: key,
          useLegacyBannerArt: true,
        });
      }
    }
  }

  // Golden Abundance — every occurrence in the next 6 months
  const year = now.getFullYear();
  for (let i = 0; i <= 7; i++) {
    const probeMonth = (now.getMonth() + i) % 12;
    const probeYear  = now.getMonth() + i >= 12 ? year + 1 : year;
    const sun3 = (() => {
      let count = 0;
      for (let d = 1; d <= 31; d++) {
        const day = new Date(probeYear, probeMonth, d);
        if (day.getMonth() !== probeMonth) break;
        if (day.getDay() === 0 && ++count === 3) return day;
      }
      return null;
    })();
    const sun4 = (() => {
      let count = 0;
      for (let d = 1; d <= 31; d++) {
        const day = new Date(probeYear, probeMonth, d);
        if (day.getMonth() !== probeMonth) break;
        if (day.getDay() === 0 && ++count === 4) return day;
      }
      return null;
    })();
    if (!sun3 || !sun4) continue;
    const start = new Date(sun3); start.setHours(6, 0, 0, 0);
    const end   = new Date(sun4); end.setHours(22, 0, 0, 0);
    if (end <= now || start >= cutoff) continue;
    const gaKey = `${probeYear}-${pad2(probeMonth + 1)}`;
    events.push({
      id: `golden-abundance-${gaKey}`,
      name: "Golden Abundance",
      subtitle: "Double Rewards Week",
      color: "#D4AF37", icon: "✨",
      category: "ECONOMY",
      calendarImg: "/coins/catcoin.png",
      calendarImgSide: "left",
      calendarGradient: "linear-gradient(135deg, #B08521 0%, #3D2200 100%)",
      calendarBorder: "#E8A33D",
      recurringBannerKey: "golden-abundance",
      window: { start, end },
    });
  }

  events.sort((a, b) => (a.window?.start || 0) - (b.window?.start || 0));
  return events;
}

// Bundles the full featured set (Legendary + up to 2 Rares) for whichever
// banner is active right now — shared by the draw engine (openBannerTicket)
// and the "Open ticket" odds preview in GachaTicketModal, so both always
// agree on exactly which avatars are featured.
async function getActiveBannerFeaturedAvatars(date = new Date()) {
  const banner = getActiveBanner(date);
  if (!banner) return null;
  const catalog = getFullAvatarCatalog();
  const legendary = await getEffectiveBannerFeaturedLegendary(banner.bannerKey, banner.featuredMonthKey, catalog);
  const rareIds = await getEffectiveBannerFeaturedRares(banner.bannerKey);
  const rares = rareIds.map((id) => catalog.find((a) => a.id === id)).filter(Boolean);
  return { banner, legendary: legendary || null, rares };
}

// Issue #379 — pure table builder, shared by the actual roll (openBannerTicket)
// and the odds preview (GachaTicketModal), so they can never drift apart.
// 3 shapes per #351's locked decisions:
//  - Legendary still available: it's the jackpot (2%), the 2 featured Rares
//    share a smaller rate-up slice (8%, folded into avatar_rare if none of
//    them are available either), rest is avatar/coin filler.
//  - Legendary already owned, >=1 featured Rare still available: the
//    featured Rare(s) BECOME the jackpot (decision 4 — "jackpot passa a
//    valer só pelos Rares featured restantes").
//  - Nothing featured left (Legendary + both Rares owned): decision 5 —
//    plain Common/Uncommon/Rare fallback pool, Epic never included, no
//    jackpot possible this banner (jackpotKey: null — pity still climbs via
//    updateGachaPity, just never gets boosted since there's nothing to
//    boost toward; see openBannerTicket's guaranteedNextBanner flag).
function buildBannerRollTable(legendaryAvailable, availableRareCount) {
  if (legendaryAvailable) {
    return availableRareCount > 0
      ? { table: [["jackpot_legendary", 2], ["featured_rare", 8], ["avatar_rare", 10], ["avatar_uncommon", 15], ["coins_2000", 15], ["coins_1500", 20], ["coins_1000", 20], ["coins_750", 10]], jackpotKey: "jackpot_legendary" }
      : { table: [["jackpot_legendary", 2], ["avatar_rare", 18], ["avatar_uncommon", 15], ["coins_2000", 15], ["coins_1500", 20], ["coins_1000", 20], ["coins_750", 10]], jackpotKey: "jackpot_legendary" };
  }
  if (availableRareCount > 0) {
    return { table: [["featured_rare", 10], ["avatar_rare", 10], ["avatar_uncommon", 15], ["coins_2000", 15], ["coins_1500", 20], ["coins_1000", 20], ["coins_750", 10]], jackpotKey: "featured_rare" };
  }
  return { table: [["avatar_rare", 20], ["avatar_uncommon", 30], ["avatar_common", 30], ["coins_1000", 10], ["coins_750", 10]], jackpotKey: null };
}

// Opens 1 Solstice Ticket. Only valid while a banner is active and launched
// — outside the window the only valid action on a held ticket is the #380
// conversion (not this roll). Returns:
//  - { ok:false, reason: "no-ticket" | "banner-inactive" }
//  - { ok:true, avatar, coins, newCoins, profile, guaranteedNextBanner,
//      pityCount } — same shape as openRareTicket/openEpicTicket.
// guaranteedNextBanner is only ever true in the decision-5 fallback (no
// jackpotKey at all): it means hard-pity was JUST reached this pull with
// nothing featured left to grant this banner, so — per #351 decision 4 —
// the persisted counter guarantees a hit the moment a FUTURE banner ships a
// new featured set the student doesn't already own.
async function openBannerTicket(profile, { simulate = false } = {}) {
  const tickets = simulate ? { banner: 1 } : await getGachaTickets();
  if (!simulate && (tickets.banner || 0) <= 0) return { ok: false, reason: "no-ticket" };

  const featured = await getActiveBannerFeaturedAvatars(new Date());
  if (!featured || !isBannerLaunched(featured.banner.bannerKey)) return { ok: false, reason: "banner-inactive" };

  const owned = new Set(profile.unlockedAvatars || []);
  const legendaryAvailable = !!featured.legendary && !owned.has(featured.legendary.id);
  const availableRares = featured.rares.filter((a) => !owned.has(a.id));

  let { table, jackpotKey } = buildBannerRollTable(legendaryAvailable, availableRares.length);

  let pityCount = 0;
  if (!simulate) {
    const pity = await getGachaPity();
    pityCount = pity.banner || 0;
    if (jackpotKey) table = applyPityBoost(table, jackpotKey, pityCount, GACHA_PITY.banner.softStart, GACHA_PITY.banner.hardCap);
  }

  const key = rollWeightedTable(table);
  let coinReward = 0;
  let avatar = null;
  if (key === "jackpot_legendary") avatar = featured.legendary;
  else if (key === "featured_rare") avatar = availableRares[Math.floor(Math.random() * availableRares.length)] || null;
  else if (key === "avatar_rare") avatar = pickRandomUnownedAvatar("rare", profile);
  else if (key === "avatar_uncommon") avatar = pickRandomUnownedAvatar("uncommon", profile);
  else if (key === "avatar_common") avatar = pickRandomUnownedAvatar("common", profile);
  else coinReward = parseInt(key.split("_")[1], 10);

  // Defensive net, same spirit as Rare/Epic — an avatar-flavored key should
  // never resolve empty given how the table above is chosen, but never
  // strand a roll with nothing to show; also doubles as the natural
  // "everything owned" cashback with no special-case needed.
  if ((key === "jackpot_legendary" || key === "featured_rare" || key.startsWith("avatar_")) && !avatar) {
    coinReward = (coinReward || 0) + BANNER_TICKET_PRICE;
  }
  const hitJackpot = !!jackpotKey && key === jackpotKey && !!avatar;

  if (!simulate) {
    await storageSet(GACHA_TICKETS_KEY, { ...tickets, banner: tickets.banner - 1 }, false);
    { const _u = getCurrentUsername(); if (_u) mirrorStudentWallet(_u).catch(() => {}); }
  }

  let updatedProfile = profile;
  if (avatar) {
    updatedProfile = { ...profile, unlockedAvatars: [...(profile.unlockedAvatars || []), avatar.id] };
    if (!simulate) {
      await storageSet(KEYS.profile, updatedProfile, false);
      await mirrorUnlockedAvatarsToRoster(profile.username, updatedProfile.unlockedAvatars, profile);
      appendStudentEvent(profile.username, { type: "avatar", desc: `Unlocked ${avatar.name}`, icon: "🐱" }).catch(() => {});
    }
  }
  const newCoins = (!simulate && coinReward) ? await creditCoins(coinReward, "Gacha Solstice Ticket reward") : null;

  const nextPityCount = hitJackpot ? 0 : pityCount + 1;
  if (!simulate) {
    await updateGachaPity("banner", hitJackpot);
    await appendGachaHistoryEntry({ kind: "banner", key, avatarId: avatar?.id || null, coins: coinReward || 0, rarity: avatar?.rarity || null });
  }

  return {
    ok: true, avatar: avatar || null, coins: coinReward || 0, newCoins,
    profile: simulate ? profile : updatedProfile, simulate,
    pityCount: simulate ? undefined : nextPityCount,
    guaranteedNextBanner: !simulate && !jackpotKey && nextPityCount >= GACHA_PITY.banner.hardCap,
  };
}

// Issue #380 — fee/cashback for converting a stalled (post-window) Solstice
// Ticket into a Rare or Starlight Ticket. #351's context: "Fora da janela ativa,
// Solstice Tickets nao abertos ficam parados no inventario ... ate o aluno
// decidir converter" — the ticket itself can't be rolled once its banner
// window closes (openBannerTicket requires an active+launched banner), so
// this is the only way to get value out of one held past its window.
const BANNER_CONVERT_EPIC_FEE = 350;      // -> Starlight Ticket, student pays this (#510)
const BANNER_CONVERT_RARE_CASHBACK = 600; // -> Moonrise Ticket, student receives this (#510)

// Converts 1 unopened Solstice Ticket into either an Starlight Ticket (kind:
// "epic", 700-coin fee) or a Moonrise Ticket (kind: "rare", 400-coin cashback).
// Deliberately NOT a roll: doesn't touch GACHA_PITY's persistent "banner"
// track (#351 decision 3 — must survive untouched across windows) and the
// Rare/Starlight Ticket credited here enters the inventory "clean", same as any
// other bought ticket — no pity progress carried over either direction.
// `coins` is the caller's current balance (same convention as
// buyGachaTicket), only needed to pre-check the Epic fee.
async function convertBannerTicket(kind, coins) {
  if (kind !== "epic" && kind !== "rare") return { ok: false, reason: "invalid-kind" };
  const tickets = await getGachaTickets();
  if ((tickets.banner || 0) <= 0) return { ok: false, reason: "no-ticket" };
  if (kind === "epic" && (coins || 0) < BANNER_CONVERT_EPIC_FEE) {
    return { ok: false, reason: "insufficient-coins", price: BANNER_CONVERT_EPIC_FEE };
  }

  const updated = { ...tickets, banner: tickets.banner - 1, [kind]: (tickets[kind] || 0) + 1 };
  await storageSet(GACHA_TICKETS_KEY, updated, false);

  const coinDelta = kind === "epic" ? -BANNER_CONVERT_EPIC_FEE : BANNER_CONVERT_RARE_CASHBACK;
  const reason = kind === "epic"
    ? "Solstice Ticket conversion fee (-> Starlight Ticket)"
    : "Solstice Ticket conversion cashback (-> Moonrise Ticket)";
  const newCoins = await creditCoins(coinDelta, reason);

  // Not a roll against a table — logged as its own history kind/key so it
  // never gets mistaken for a real Solstice pull in the Wish History (#381).
  await appendGachaHistoryEntry({ kind: "banner", key: `convert_${kind}`, avatarId: null, coins: coinDelta, rarity: null });

  return { ok: true, tickets: updated, newCoins, convertedTo: kind, coinDelta };
}

// #718 — opens 1 Dawn Ticket (Hearthbound event). Returns same shape as
// openBannerTicket. Hard pity at 45 → guaranteed Legendary (GACHA_PITY.dawn).
// Cashback when featured avatar already owned: Legendary→+1 Solstice, Epic→+1 Starlight, Rare→+1 Moonrise.
async function openDawnTicket(profile, { simulate = false } = {}) {
  const dawnCount = simulate ? 1 : ((await storageGet(HEARTHBOUND_TICKETS_KEY, false)) || 0);
  if (!simulate && dawnCount <= 0) return { ok: false, reason: "no-ticket" };

  const featured = await getHearthboundFeatured();
  const owned = new Set(profile.unlockedAvatars || []);

  // Build weighted roll table (100 total)
  const legendaryAvail = !!featured.legendary && !owned.has(featured.legendary?.id);
  const epic1Avail     = !!featured.epic1     && !owned.has(featured.epic1?.id);
  const epic2Avail     = !!featured.epic2     && !owned.has(featured.epic2?.id);
  const rareAvail      = !!featured.rare      && !owned.has(featured.rare?.id);

  const table = [
    ["legendary_event", 2.25],
    ["epic1_event",     3.25],
    ["epic2_event",     3.25],
    ["rare_event",      4.25],
    ["avatar_rare",     1.25],
    ["avatar_uncommon",  5],
    ["avatar_common",    5],
    ["coins_500",       21],
    ["coins_750",       20],
    ["coins_1000",      14.75],
    ["coins_1200",       8],
    ["coins_1500",       5],
    ["coins_1750",       4],
    ["coins_2000",       3],
  ];
  const jackpotKey = "legendary_event";

  let pityCount = 0;
  let boostedTable = table;
  if (!simulate) {
    const pity = await getGachaPity();
    pityCount = pity.dawn || 0;
    boostedTable = applyPityBoost(table, jackpotKey, pityCount, GACHA_PITY.dawn.softStart, GACHA_PITY.dawn.hardCap);
  }

  const key = rollWeightedTable(boostedTable);
  let coinReward   = 0;
  let avatar       = null;
  let cashbackKind = null; // "banner" | "epic" | "rare" — ticket cashback for owned featured

  if (key === "legendary_event") {
    if (legendaryAvail) {
      avatar = featured.legendary;
    } else {
      cashbackKind = "banner"; // Legendary owned → Solstice Ticket
    }
  } else if (key === "epic1_event") {
    if (epic1Avail) {
      avatar = featured.epic1;
    } else {
      cashbackKind = "epic"; // Epic1 owned → Starlight Ticket
    }
  } else if (key === "epic2_event") {
    if (epic2Avail) {
      avatar = featured.epic2;
    } else {
      cashbackKind = "epic"; // Epic2 owned → Starlight Ticket
    }
  } else if (key === "rare_event") {
    if (rareAvail) {
      avatar = featured.rare;
    } else {
      cashbackKind = "rare"; // Rare owned → Moonrise Ticket
    }
  } else if (key === "avatar_rare")     { avatar = pickRandomUnownedAvatar("rare",     profile); }
  else if (key === "avatar_uncommon")   { avatar = pickRandomUnownedAvatar("uncommon",  profile); }
  else if (key === "avatar_common")     { avatar = pickRandomUnownedAvatar("common",    profile); }
  else coinReward = parseInt(key.split("_")[1], 10);

  // Fallback coin when pool avatar is nil (all owned)
  if (key.startsWith("avatar_") && !avatar && !cashbackKind) coinReward = BANNER_TICKET_PRICE;

  const hitJackpot = key === jackpotKey && !!avatar;

  // Consume ticket
  if (!simulate) {
    await storageSet(HEARTHBOUND_TICKETS_KEY, Math.max(0, dawnCount - 1), false);
    { const _u = getCurrentUsername(); if (_u) mirrorStudentWallet(_u).catch(() => {}); }
  }

  // Unlock avatar or credit coins
  let updatedProfile = profile;
  if (avatar && !simulate) {
    updatedProfile = { ...profile, unlockedAvatars: [...(profile.unlockedAvatars || []), avatar.id] };
    await storageSet(KEYS.profile, updatedProfile, false);
    await mirrorUnlockedAvatarsToRoster(profile.username, updatedProfile.unlockedAvatars, profile);
  }
  // Cashback ticket grant
  let cashbackTickets = null;
  if (cashbackKind && !simulate) {
    const tickets = await getGachaTickets();
    cashbackTickets = { ...tickets, [cashbackKind]: (tickets[cashbackKind] || 0) + 1 };
    await storageSet(GACHA_TICKETS_KEY, cashbackTickets, false);
  }
  const newCoins = (!simulate && coinReward) ? await creditCoins(coinReward, "Dawn Ticket reward") : null;

  const nextPityCount = hitJackpot ? 0 : pityCount + 1;
  if (!simulate) {
    await updateGachaPity("dawn", hitJackpot);
    await appendGachaHistoryEntry({ kind: "dawn", key, avatarId: avatar?.id || null, coins: coinReward || 0, rarity: avatar?.rarity || null });
  }

  return {
    ok: true, avatar: avatar || null, coins: coinReward || 0, newCoins,
    profile: simulate ? profile : updatedProfile, simulate,
    cashbackKind: cashbackKind || null, cashbackTickets,
    pityCount: simulate ? undefined : nextPityCount,
    dawnRemaining: simulate ? dawnCount : Math.max(0, dawnCount - 1),
  };
}

const PARTS_OF_SPEECH = ["noun", "verb", "adjective", "adverb", "pronoun", "preposition", "conjunction", "interjection", "particle", "classifier", "numeral"];

// ---------------------------------------------------------------------------
// Sprint 6.5 — Progress screen helpers
// ---------------------------------------------------------------------------
function getLast7Days() {
  const days = [];
  for (let i = 6; i >= 0; i--) {
    const d = new Date();
    d.setDate(d.getDate() - i);
    const label = ['Sun','Mon','Tue','Wed','Thu','Fri','Sat'][d.getDay()];
    const key   = `${d.getFullYear()}-${pad2(d.getMonth()+1)}-${pad2(d.getDate())}`;
    days.push({ key, label, isToday: i === 0 });
  }
  return days;
}

async function loadSundayHistory() {
  try {
    const keys = await storageList('st:', false);
    if (!keys.length) return [];
    const sessions = await Promise.all(keys.map(k => storageGet(k, false)));
    return sessions
      .filter(s => s?.completed)
      .sort((a, b) => b.date.localeCompare(a.date))
      .slice(0, 8); // last 8 Sunday Tests
  } catch (e) { return []; }
}

function computeExTypeStats(history) {
  const types = {
    C: { correct: 0, total: 0, label: '🎯 Choose' },
    A: { correct: 0, total: 0, label: '🔊 Listen' },
    T: { correct: 0, total: 0, label: '🧩 Build'  },
    S: { correct: 0, total: 0, label: '🔤 Spell'  },
    W: { correct: 0, total: 0, label: '⌨️ Write'  },
    E: { correct: 0, total: 0, label: '🖼️ Match'  },
    R: { correct: 0, total: 0, label: '🔎 Recognize' },
    D: { correct: 0, total: 0, label: '🎤 Say it'  },
  };
  history.forEach(s => {
    Object.values(s.results || {}).forEach(r => {
      // Issue #103 — migrate legacy "B" exercise results (pre-refactor) into
      // their promoted type using the old bFormat field, so exercise-type
      // breakdowns for past Sunday Tests still render correctly.
      let t = r.exerciseType;
      if (t === "B") {
        t = r.bFormat === "spelling" ? "S" : r.bFormat === "typing" ? "W" : "T";
      }
      if (types[t]) { types[t].total++; if (r.correct) types[t].correct++; }
    });
  });
  return types;
}

// ---------------------------------------------------------------------------
// Issue #74 — Pronunciation stats: aggregate per-word pronunciation scores
// from progMap to find the student's weakest pronunciation words.
// Returns [{ word, avgScore, attempts }] sorted by avgScore ascending.
// ---------------------------------------------------------------------------
function computePronStats(progMap, words) {
  const wordMap = Object.fromEntries(words.map(w => [w.id, w]));
  const entries = Object.entries(progMap)
    .filter(([id, p]) => p.pronScores && p.pronScores.length > 0 && wordMap[id])
    .map(([id, p]) => {
      const scores = p.pronScores;
      const avg = Math.round(scores.reduce((s, x) => s + x, 0) / scores.length);
      return { word: wordMap[id], avgScore: avg, attempts: scores.length, lastScore: scores[scores.length - 1] };
    })
    .sort((a, b) => a.avgScore - b.avgScore); // weakest first
  return entries;
}
// ---------------------------------------------------------------------------
// ---------------------------------------------------------------------------
// Sprint 8.4 — Visual polish utilities
// ---------------------------------------------------------------------------
function haptic(pattern = [10]) {
  try { if (navigator.vibrate) navigator.vibrate(pattern); } catch {}
}

// Issue #182/#248 — real coin-drop SFX (Mixkit, free license) instead of a
// synthesized ping. Three clips by amount so a big payout actually sounds
// bigger than a small one: <250 short (single clink), 250-1000 medium (a
// small bag drop), >1000 long (a denser coin cascade).
function playCoinSound(amount = 0) {
  try {
    const src = amount > 1000 ? "/sfx/coin-drop-long.mp3"
      : amount >= 250 ? "/sfx/coin-drop-medium.mp3"
      : "/sfx/coin-drop-short.mp3";
    const a = new Audio(src);
    a.volume = 0.7;
    a.play().catch(() => {});
  } catch {}
}

// Issue #537 — singleton preloaded on first call so the WAV is already
// decoded when the GoldenAbundanceMoment mounts — no perceptible delay.
let _gaAudio = null;
function playGoldenAbundanceSfx() {
  try {
    if (!_gaAudio) { _gaAudio = new Audio("/sfx/golden-abundance.wav"); _gaAudio.load(); }
    _gaAudio.currentTime = 0;
    _gaAudio.volume = 0.75;
    _gaAudio.play().catch(() => {});
  } catch {}
}

function EmptyState({ title, subtitle, compact = false, image = "/mascote.png" }) {
  return (
    <div className={"es-root" + (compact ? " es-compact" : "")}>
      <div className="es-mascot-wrap">
        <img src={image} alt="" className="es-mascot" />
      </div>
      {title    && <div className="es-title">{title}</div>}
      {subtitle && <div className="es-sub">{subtitle}</div>}
    </div>
  );
}

function WordBankSkeleton() {
  return (
    <div className="skeleton-list">
      {[...Array(6)].map((_, i) => (
        <div key={i} className="skeleton-row" style={{ animationDelay: `${i * 0.08}s` }}>
          <div className="sk-left">
            <div className="sk-line sk-thai" />
            <div className="sk-line sk-ro" />
          </div>
          <div className="sk-right">
            <div className="sk-line sk-en" />
            <div className="sk-chips"><div className="sk-chip" /><div className="sk-chip" /></div>
          </div>
        </div>
      ))}
    </div>
  );
}

// ---------------------------------------------------------------------------
const ROSTER_PREFIX     = "roster:";             // shared: roster:<username>
// Issue #304 — teacher-facing level-up notification feed. Cross-user by
// nature (student's client writes, teacher's client — a different login
// session — reads), so it lives in shared_kv, capped to the last 50 entries.
const TEACHER_LEVELUP_FEED_KEY = "teacher-levelup-feed";
const TEACHER_LEVELUP_FEED_MAX = 50;

const isTeacher = (profile) => profile?.role === "teacher";

// Sprint 12 — the teacher access code and the role decision now live
// entirely server-side (see supabase-schema/sprint12_teacher_rbac.sql).
// The client never sees the real code — it only calls RPCs and gets back
// true/false, or (for a logged-in teacher) the current code to display.
async function claimTeacherRole(code) {
  const client = await getSupabaseClient();
  const { data, error } = await client.rpc("claim_teacher_role", { p_code: code });
  if (error) return false;
  return !!data;
}

async function ensureStudentProfile(username) {
  const client = await getSupabaseClient();
  await client.rpc("ensure_student_profile", { p_username: username });
}

async function fetchMyRole() {
  const client = await getSupabaseClient();
  const _sbUser = getStorageUser();
  if (!_sbUser) return "student";
  const { data, error } = await client
    .from("account_roles").select("role").eq("user_id", _sbUser.id).maybeSingle();
  if (error || !data) return "student";
  return data.role;
}

async function registerStudent(profile) {
  // Self-register in shared roster so teacher can discover this student.
  //
  // BUG FIX (2026-07-06): this used to write a brand-new object from
  // scratch on every single login (not just the first one). storageSet's
  // shared_kv upsert replaces the ENTIRE stored JSON blob for the key — it
  // does not merge fields — so every re-login was silently wiping out
  // teacher-managed roster fields that live under this same key, most
  // importantly `enabledClassCodes` (a student's released ClassCodes would
  // revert to "locked/default" the next time they logged back in). Now we
  // read the existing entry first and only refresh the identity fields,
  // preserving everything else (enabledClassCodes, etc.) and the original
  // joinedAt.
  const key = `${ROSTER_PREFIX}${profile.username}`;
  const { value: existing, error } = await storageGetSafe(key, true);
  if (error) {
    // Issue #251 — never fall back to `{}` on a failed read here: that's
    // exactly the old bug this function's 2026-07-06 fix addressed, just
    // reappearing through a different door. Skip this write; the next
    // successful login retries it.
    console.error(`[registerStudent] aborting roster write for "${profile.username}" — couldn't read existing record:`, error);
    return;
  }
  // #737 — generate or reuse persistent student code (HMAC-SHA256 of user_id)
  let studentCode = existing?.studentCode;
  if (!studentCode) {
    try {
      const sbUser = getStorageUser();
      if (sbUser?.id) {
        studentCode = await generateStudentCode(sbUser.id);
        // reverse-lookup index: sc:CODE → username (shared, so teacher can query)
        await storageSet(`sc:${studentCode}`, profile.username, true);
      }
    } catch (_) {}
  }

  await storageSet(
    key,
    {
      ...(existing || {}),
      username: profile.username,
      level: profile.level,
      joinedAt: existing?.joinedAt || Date.now(),
      avatar: profile.avatar || existing?.avatar || DEFAULT_AVATAR_ID,
      ...(studentCode ? { studentCode } : {}),
      // #845 — auto-enroll: new students get S0C1 on first registration;
      // existing entries preserve whatever the teacher already configured.
      ...(!existing ? { enabledClassCodes: ["S0C1"] } : {}),
    },
    true
  );
}

async function loadRoster() {
  try {
    const keys = await storageList(ROSTER_PREFIX, true);
    if (!keys.length) return [];
    const entries = await Promise.all(keys.map(k => storageGet(k, true)));
    // Issue #251 — a single roster record missing `username` (e.g. corrupted
    // by a partial overwrite elsewhere) used to throw inside .sort() and get
    // caught by this function's own try/catch, silently returning [] for the
    // ENTIRE class — one bad student wiped everyone off the Teacher Panel.
    // Now: drop only the bad record (and log it) so the rest of the roster
    // still renders.
    const valid = entries.filter(e => e && typeof e.username === "string");
    const corrupted = entries.length - valid.length;
    if (corrupted > 0) {
      console.error(`[loadRoster] dropped ${corrupted} roster record(s) missing a valid "username" field — check for a stale read-merge-write overwrite.`);
    }
    return valid.sort((a, b) => a.username.localeCompare(b.username));
  } catch (e) {
    console.error("[loadRoster] exception:", e);
    return [];
  }
}

// Issue #176 — mirrors a student's unlockedAvatars into their roster entry
// (read-merge-write, same pattern as registerStudent's bug fix above — never
// blind-overwrite the shared blob). Needed so the Teacher Panel gift modal
// can see which avatars a student already owns without any RPC. Called
// everywhere unlockedAvatars changes: the #162 random draw, the #181
// monthly cat, the #168 shop purchase, and a claimed #176 gift itself.
async function mirrorUnlockedAvatarsToRoster(username, unlockedAvatars, profile) {
  // Issue #251 — teacher accounts (e.g. previewing/testing the Gacha) have
  // no business in the student roster. Mirroring for them is exactly how
  // `roster:Khem` (a teacher account) ended up as a stray entry in the
  // roster in the first place — it later got corrupted and crashed the
  // Teacher Panel's roster sort for every real student, not just Khem.
  if (isTeacher(profile)) return;
  const key = `${ROSTER_PREFIX}${username}`;
  // Root cause of the "No students yet" Teacher Panel bug: this used to do
  // `(await storageGet(key, true)) || {}` and write straight through. If
  // that read failed for ANY reason (the storage layer used to swallow
  // errors silently — see #251), `existing` fell back to `{}` and this
  // overwrote the WHOLE roster record with nothing but `{unlockedAvatars}`
  // — wiping username/level/joinedAt/enabledClassCodes. Now: abort the
  // write (log + bail) if the read didn't succeed, and always carry
  // `username` through explicitly since we already have it as a param.
  const { value: existing, error } = await storageGetSafe(key, true);
  if (error) {
    console.error("[mirrorUnlockedAvatarsToRoster] aborting write — couldn't read existing roster record for", username, "-", error);
    return;
  }
  await storageSet(key, { ...(existing || {}), username, unlockedAvatars }, true);
}

// ---------------------------------------------------------------------------
// Issue #304 — teacher-facing level-up notification feed (deferred out of
// #45 on purpose). Read-merge-write on shared_kv, so this MUST use
// storageGetSafe — never `storageGet(...) || []` — same rule established by
// #251/#282 (that exact shortcut already caused 2 data-corruption bugs).
// ---------------------------------------------------------------------------
async function notifyTeacherLevelUp(username, fromLevel, toLevel) {
  const { value: existing, error } = await storageGetSafe(TEACHER_LEVELUP_FEED_KEY, true);
  if (error) {
    console.error("[notifyTeacherLevelUp] aborting — couldn't read existing feed:", error);
    return;
  }
  const feed = Array.isArray(existing) ? existing : [];
  const entry = {
    id:        `${username}-${toLevel}-${Date.now()}`,
    username, fromLevel, toLevel,
    at:        Date.now(),
    seen:      false,
  };
  await storageSet(TEACHER_LEVELUP_FEED_KEY, [entry, ...feed].slice(0, TEACHER_LEVELUP_FEED_MAX), true);
}

async function loadTeacherLevelUpFeed() {
  const { value, error } = await storageGetSafe(TEACHER_LEVELUP_FEED_KEY, true);
  if (error) { console.error("[loadTeacherLevelUpFeed] read failed:", error); return []; }
  return Array.isArray(value) ? value : [];
}

// Marks every entry seen (called once the teacher actually opens the feed).
// No-ops (skips the write) if everything is already seen.
async function markTeacherLevelUpFeedSeen() {
  const { value: existing, error } = await storageGetSafe(TEACHER_LEVELUP_FEED_KEY, true);
  if (error || !Array.isArray(existing) || existing.length === 0) return;
  if (existing.every(e => e.seen)) return;
  await storageSet(TEACHER_LEVELUP_FEED_KEY, existing.map(e => ({ ...e, seen: true })), true);
}

// ---------------------------------------------------------------------------
// Sprint 6.4 — Student stats written to shared storage so teacher can read them
// ---------------------------------------------------------------------------
const STUDENT_STATS_PREFIX = "student-stats:"; // shared: student-stats:<username>

// Issue #57 — `extra` merges additional fields into the shared payload
// without disturbing the existing shape every other reader already expects
// (teacher roster overview, #55's activity polling). Used to mirror
// berserkStars in so the teacher's polling below can detect a newly
// cleared tier the same way it already detects a streak bump.
async function updateSharedStats(profile, progMap, streak, extra = {}) {
  if (isTeacher(profile)) return; // teachers don't write student stats
  const entries  = Object.values(progMap);
  const total    = entries.reduce((s, p) => s + p.count, 0);
  const gotIt    = entries.reduce((s, p) => s + Math.max(0, p.streak), 0); // proxy for got-it total
  const attempted = entries.filter(p => p.count > 0).length;
  const mastered  = entries.filter(p => p.srsInterval >= 14).length;
  // Issue #56 — read-modify-write instead of a blind overwrite: a previous
  // call's mirrored `extra` field (berserkStars from #57, lastSundayTestDate,
  // the new berserk achievement/attempt logs below, ...) must survive a LATER
  // call that doesn't repeat it — otherwise e.g. finishing a plain Practice
  // session right after clearing a Berserk tier would silently wipe that
  // tier's mirrored timestamp off the teacher-visible row. Same storageGetSafe
  // rule as #251/#282: bail out (skip the write) rather than risk building
  // the merge base from a masked read failure.
  const key = `${STUDENT_STATS_PREFIX}${profile.username}`;
  const { value: existing, error } = await storageGetSafe(key, true);
  if (error) { console.error("[updateSharedStats] read failed, skipping write:", error); return; }
  await storageSet(key, {
    ...(existing || {}),
    username:       profile.username,
    level:          profile.level || "Pre-A1",
    streak:         streak?.count || 0,
    totalAnswered:  total,
    wordsAttempted: attempted,
    wordsMastered:  mastered,
    lastActive:     Date.now(),
    ...extra,
  }, true);
}

// ---------------------------------------------------------------------------
// #738 — Student event timeline (shared_kv mirror, written from student side)
// ---------------------------------------------------------------------------
const STUDENT_EVENTS_KEY = (u) => `student-events:${u}`; // shared: [{type,date,desc,icon}] newest-first, max 30
const STUDENT_WALLET_KEY = (u) => `student-wallet:${u}`; // shared: {coins, tickets:{rare,epic,banner}, dawnTickets}

async function appendStudentEvent(username, { type, desc, icon }) {
  const key = STUDENT_EVENTS_KEY(username);
  const { value: existing, error } = await storageGetSafe(key, true);
  if (error) return;
  const prev = Array.isArray(existing) ? existing : [];
  const entry = { type, desc, icon, date: Date.now() };
  const next = [entry, ...prev].slice(0, 30);
  await storageSet(key, next, true);
}

// #758 — appends achievement + milestone timeline events after a runAchievementEngine call
async function appendAchievementTimelineEvents(username, newOnes, prevAchIds) {
  if (!username || !newOnes?.length) return;
  const prevSet = new Set(Array.isArray(prevAchIds) ? prevAchIds : []);
  for (const ach of newOnes) {
    const isMilestone = MILESTONES_DEF.some(m => m.id === ach.id);
    if (isMilestone) {
      appendStudentEvent(username, { type: "milestone", desc: ach.title || "Milestone unlocked", icon: "🏆" }).catch(() => {});
    } else {
      appendStudentEvent(username, { type: "achievement", desc: ach.title || "Achievement unlocked", icon: "⭐" }).catch(() => {});
    }
  }
}

async function mirrorStudentWallet(username) {
  try {
    const [coins, tickets, dawnTickets] = await Promise.all([
      storageGet(COINS_KEY, false),
      storageGet(GACHA_TICKETS_KEY, false),
      storageGet(HEARTHBOUND_TICKETS_KEY, false),
    ]);
    await storageSet(STUDENT_WALLET_KEY(username), {
      coins: coins || 0,
      tickets: tickets || {},
      dawnTickets: dawnTickets || 0,
      mirroredAt: Date.now(),
    }, true);
  } catch (_) {}
}

// ---------------------------------------------------------------------------
// Sprint 6.2 — Class code helpers
// ---------------------------------------------------------------------------
const CLASS_CODES_KEY = "class-codes"; // shared registry of imported class codes

// Auto-suggest a class code from a filename
// "Stage_1_-_Class_1_-_Thai_Vowels.pptx" → "S1C1"
function suggestClassCode(filename) {
  const base = filename.replace(/\.[^.]+$/, "");
  const nums = base.match(/\d+/g);
  if (!nums || nums.length === 0) return "";
  if (nums.length === 1) return `S${nums[0]}`;
  return `S${nums[0]}C${nums[1]}`;
}

// ---------------------------------------------------------------------------
// Sprint 6.3 — Visible words filter (class codes per student)
// ---------------------------------------------------------------------------
// enabledCodes null/undefined = not resolved yet (loading) → defensive fallback, show all
// enabledCodes [] = locked (default for new/unconfigured students, or teacher explicitly cleared) → show nothing
// enabledCodes ["S1C1"] = filter to that code (words without classCode always visible)
function getVisibleWords(words, profile, enabledCodes, studentNodeIndex = null) {
  if (isTeacher(profile)) return words;
  if (enabledCodes == null) return words;
  if (enabledCodes.length === 0) return [];
  const codeSet = new Set(enabledCodes);
  return words.filter(w => {
    if (w.classCode && !codeSet.has(w.classCode)) return false;
    // #844 — words with lessonNodeIndex are locked until the student reaches that node
    if (w.lessonNodeIndex != null && studentNodeIndex != null && w.lessonNodeIndex > studentNodeIndex) return false;
    return true;
  });
}

// Issue #91 — calcLevelProgress: pure function, no UI.
// Calculates student mastery within their current level.
// mastered = srsInterval >= 14 (same threshold as isWordMastered / achievements).
// Pre-#75 records (no level field) fall back to "Pre-A1".
function calcLevelProgress(words, progMap, profile, enabledClassCodes) {
  const level = profile?.level || "Pre-A1";
  const visible = getVisibleWords(words, profile, enabledClassCodes);
  const levelWords = visible.filter(w => (w.level || "Pre-A1") === level);
  if (levelWords.length === 0) {
    return { level, totalWords: 0, practicedWords: 0, masteredWords: 0, percent: 0 };
  }
  const practiced = levelWords.filter(w => (progMap[w.id]?.count || 0) > 0).length;
  const mastered  = levelWords.filter(w => (progMap[w.id]?.srsInterval || 0) >= 14).length;
  return {
    level,
    totalWords:     levelWords.length,
    practicedWords: practiced,
    masteredWords:  mastered,
    percent:        Math.round((mastered / levelWords.length) * 100),
  };
}

// ---------------------------------------------------------------------------
// Storage helpers
// shared=true  -> the shared word bank (anyone can add/edit, nobody deletes)
// shared=false -> this person's own scope: profile + private words
// ---------------------------------------------------------------------------
const KEYS = {
  profile: "profile",
  sharedIndex: "shared-word-index",
  privateIndex: "private-word-index",
  word: (id) => `word:${id}`,
};
const LEVEL_CONFIG_KEY = "level-config"; // Issue #93 — teacher-controlled per-level settings

// ---------------------------------------------------------------------------
// Issue #161 — Avatar system foundation (data model, catalog, default avatar)
// Avatar assets already committed to public/avatars/ (512x512 pngs).
// shadow-cat is the default: every student starts with it, and it never
// enters the prize-pool draw. The rest are drawn randomly (see
// grantRandomPrizeAvatar) as unlock criteria are met — the exact criteria
// live in issue #162, not here; this is just the mechanism + catalog.
// ---------------------------------------------------------------------------
const DEFAULT_AVATAR_ID = "shadow-cat";

// Issue #204 — rarity tier per avatar, drives the colored ring/card treatment
// (see getAvatarRingClass below) on the student's own avatar circle and on
// avatar/store cards. Confirmed distribution (owner decision, 2026-07-06):
// Common = no-costume lottery avatars, Uncommon = costumed lottery avatars,
// Rare = shop avatars with plain costumes, Epic = shop avatars with special
// costumes, Legendary = Monthly Challenge avatars. New avatars joining the
// shop later will slot into Rare/Epic per the same "plain vs special
// costume" rule.
const AVATAR_CATALOG = [
  // Default — every student has this from the start, excluded from the draw.
  { id: "shadow-cat",   name: "Shadow Cat",   image: "/avatars/shadow-cat.png",   isDefault: true,  shopExclusive: false, rarity: "common" },
  // Prize pool (issue #170) — no special costume in the art, eligible for
  // random draw via grantRandomPrizeAvatar.
  { id: "cola",         name: "Cola",         image: "/avatars/cola.png",         shopExclusive: false, rarity: "common" },
  { id: "oliang",       name: "Oliang",       image: "/avatars/oliang.png",       shopExclusive: false, rarity: "common" },
  { id: "peung",        name: "Peung",        image: "/avatars/peung.png",        shopExclusive: false, rarity: "common" },
  { id: "taotao",       name: "Taotao",       image: "/avatars/taotao.png",       shopExclusive: false, rarity: "common" },
  { id: "yar",          name: "Yar",          image: "/avatars/yar.png",          shopExclusive: false, rarity: "uncommon" },
  // Prize pool (issue #172)
  { id: "tamnainaa",    name: "Tamnainaa",    image: "/avatars/tamnainaa.png",    shopExclusive: false, rarity: "uncommon" },
  { id: "pimai",        name: "Pimai",        image: "/avatars/pimai.png",        shopExclusive: false, rarity: "uncommon" },
  { id: "satang",       name: "Satang",       image: "/avatars/satang.png",       shopExclusive: false, rarity: "common" },
  { id: "kieaw",        name: "Kieaw",        image: "/avatars/kieaw.png",        shopExclusive: false, rarity: "common" },
  { id: "nong-nom-nom", name: "Nong Nóm Nom", image: "/avatars/nong-nom-nom.png", shopExclusive: false, rarity: "uncommon" },
  // Shop-exclusive (issue #170) — special costume in the art, never drawn,
  // only purchasable with coins now that the shop has shipped (issue #168).
  // Flat launch price for all 12 — no per-avatar rarity/pricing tiers were
  // specified, so this is a single easy-to-tune constant for now (see
  // SHOP_AVATAR_PRICE fallback below); bump individual `price` fields here
  // later if some should cost more/less.
  { id: "angrit",       name: "Angrit",       image: "/avatars/angrit.png",       shopExclusive: true, price: 2750, rarity: "rare" },
  { id: "jonhong",      name: "Jonhong",      image: "/avatars/jonhong.png",      shopExclusive: true, price: 2750, rarity: "rare" },
  { id: "ligao",        name: "Ligao",        image: "/avatars/ligao.png",        shopExclusive: true, price: 2750, rarity: "rare" },
  { id: "matchapunn",   name: "Matchapunn",   image: "/avatars/matchapunn.png",   shopExclusive: true, price: 5000, rarity: "epic" },
  { id: "meowdee",      name: "Meowdee",      image: "/avatars/meowdee.png",      shopExclusive: true, price: 5000, rarity: "epic" },
  { id: "pinoynoy",     name: "Pinoynoy",     image: "/avatars/pinoynoy.png",     shopExclusive: true, price: 2750, rarity: "rare" },
  { id: "salaitherin",  name: "Salaitherin",  image: "/avatars/salaitherin.png",  shopExclusive: true, price: 2750, rarity: "rare" },
  { id: "seefa",        name: "Seefa",        image: "/avatars/seefa.png",        shopExclusive: true, price: 2750, rarity: "rare" },
  // Shop-exclusive (issue #172)
  { id: "yin-khonthai",     name: "Yin Khonthai",     image: "/avatars/yin-khonthai.png",     shopExclusive: true, price: 5000, rarity: "epic" },
  { id: "yuar-meowdestiny", name: "Yuar Meowdestiny", image: "/avatars/yuar-meowdestiny.png", shopExclusive: true, price: 5000, rarity: "epic" },
  { id: "meowthai",         name: "Meowthai",         image: "/avatars/meowthai.png",         shopExclusive: true, price: 5000, rarity: "epic" },
  { id: "saithung",         name: "Saithung",         image: "/avatars/saithung.png",         shopExclusive: true, price: 5000, rarity: "epic" },
  // Issue #181 — Gatinho do Mês: one exclusive avatar per calendar month.
  // Only obtainable via the monthly challenge (see runMonthlyCatEngine) or a
  // teacher gift (#176) — never via the random prize draw or the shop.
  // monthKey ties an entry to the specific month it's exclusive to; a new
  // entry (+ new art) gets appended here every month — recurring content
  // task, not code. Months with no entry here simply skip the monthly grant
  // (see runMonthlyCatEngine's early-return when getMonthlyCatAvatar is null).
  { id: "monthcat-2026-07", name: "Ubonkara",  image: "/avatars/monthcat-2026-07.png", monthlyExclusive: true, monthKey: "2026-07", rarity: "legendary" },
  { id: "monthcat-2026-08", name: "Singhameh", image: "/avatars/monthcat-2026-08.png", monthlyExclusive: true, monthKey: "2026-08", rarity: "legendary" },
  // Issue #386 (owner decision 2026-07-09, M-2 rule) — "2026-06" is being
  // shipped retroactively, on purpose: runMonthlyCatEngine only ever checks
  // THIS calendar month's entry (getMonthKey() with no arg = today), so
  // backfilling a past monthKey here can never retroactively grant this to
  // anyone via the streak challenge — Meowlin's only path to a student's
  // collection is the 2026-08 Solstice Banner (auto-featured via M-2) or a
  // teacher gift. That's intentional: a true banner-exclusive debut, not a
  // "second chance at content you could've earned" catch-up like Ubonkara.
  { id: "monthcat-2026-06", name: "Meowlin",   image: "/avatars/meowlin.png",           monthlyExclusive: true, monthKey: "2026-06", rarity: "legendary" },
  // Issue #386 — 2026-08 Solstice Banner's 2 featured Rares. Brand-new,
  // never-before-seen avatars (same banner-debut spirit as Meowlin above),
  // locked out of the general Moonrise Ticket/Starlight Ticket/banner-fallback pools
  // (see isAvatarLocked/getAvatarsByRarity) until 2 calendar months after
  // the banner they debuted in closes — "2026-10" for this one, per the
  // owner's standing rule. Explicitly featured via setBannerFeaturedRares
  // below, which looks avatars up by id directly and ignores the lock.
  { id: "don-thong",    name: "Don Thong",    image: "/avatars/don-thong.png",    shopExclusive: false, rarity: "rare", lockedUntilMonthKey: "2026-10" },
  { id: "kila-meowter", name: "Kila Meowter", image: "/avatars/kila-meowter.png", shopExclusive: false, rarity: "rare", lockedUntilMonthKey: "2026-10" },
];

// ---------------------------------------------------------------------------
// Issue #227 (sub-issue of #223) — dynamic avatar catalog, data layer only.
//
// Teachers can add their own cats without a code deploy. They're stored
// separately from the hardcoded AVATAR_CATALOG above (which stays the
// source of truth for the original ~30 avatars — still only editable via
// deploy) in a shared KV list, and merged in at read time.
//
// Shape of each custom entry (mirrors AVATAR_CATALOG's own shape exactly,
// so every existing helper — getAvatarById, getPrizePoolAvatars,
// getMonthlyCatAvatar, etc. — treats a custom avatar identically to a
// hardcoded one):
//   { id, name, image, rarity, shopExclusive?, price?, monthlyExclusive?, monthKey? }
const CUSTOM_AVATAR_CATALOG_KEY = "avatar-custom-catalog"; // shared

// In-memory cache of the custom list. Populated by refreshCustomAvatarCache()
// (called once near app boot — see App()'s init effect — and again after any
// CRUD op) so that getFullAvatarCatalog() below can stay a plain SYNCHRONOUS
// function. That matters because every catalog-reading helper in this file
// (getAvatarById, getPrizePoolAvatars, getMonthlyCatAvatar,
// getTeacherDisplayAvatar) already takes `catalog = AVATAR_CATALOG` as a
// default parameter — JS re-evaluates default expressions on every call that
// omits the arg, so simply changing those defaults to `= getFullAvatarCatalog()`
// makes every existing call site (the vast majority of which never pass a
// catalog explicitly) pick up custom avatars for free, with no per-call-site
// sweep needed. The only spots that read AVATAR_CATALOG directly instead of
// through one of those helpers (Store screen, Collection screen, the Avatar
// Powers assignment list) are swapped individually below/at their call sites.
let _customAvatarCache = [];

async function getCustomAvatars() {
  return (await storageGet(CUSTOM_AVATAR_CATALOG_KEY, true)) || [];
}

async function refreshCustomAvatarCache() {
  _customAvatarCache = await getCustomAvatars();
  return _customAvatarCache;
}

// The single source of truth every catalog read should go through instead of
// the bare AVATAR_CATALOG constant.
function getFullAvatarCatalog() {
  return [...AVATAR_CATALOG, ..._customAvatarCache];
}

function slugifyAvatarName(name) {
  return (name || "")
    .normalize("NFD").replace(/[\u0300-\u036f]/g, "")
    .trim().toLowerCase().replace(/[^a-z0-9]+/g, "-").replace(/^-+|-+$/g, "") || "cat";
}

// Throws a plain Error with a teacher-facing message on any validation
// failure — callers (the #228 UI) should catch and surface `err.message`.
function validateCustomAvatarData(data, { existingId } = {}) {
  if (!data?.name?.trim()) throw new Error("Name is required.");
  if (!data?.image?.trim()) throw new Error("Image URL is required.");
  if (!["common", "uncommon", "rare", "epic", "legendary"].includes(data?.rarity)) {
    throw new Error("Choose a valid rarity.");
  }
  const categories = [data.shopExclusive, data.monthlyExclusive].filter(Boolean).length;
  if (categories > 1) throw new Error("Pick only one availability category: Shop or Monthly Challenge.");
  if (data.shopExclusive && !(Number(data.price) > 0)) {
    throw new Error("Shop cats need a price in Meowtongs.");
  }
  if (data.monthlyExclusive && !/^\d{4}-\d{2}$/.test(data.monthKey || "")) {
    throw new Error("Monthly Challenge cats need a month (YYYY-MM).");
  }
  // Issue #391 — optional lock, same "YYYY-MM" shape already used by
  // lockedUntilMonthKey on the hardcoded Don Thong/Kila Meowter entries.
  if (data.lockedUntilMonthKey && !/^\d{4}-\d{2}$/.test(data.lockedUntilMonthKey)) {
    throw new Error("Locked until must be a valid month (YYYY-MM).");
  }
  const id = existingId || slugifyAvatarName(data.name);
  const takenByHardcoded = AVATAR_CATALOG.some((a) => a.id === id);
  const takenByCustom = _customAvatarCache.some((a) => a.id === id && a.id !== existingId);
  if (takenByHardcoded || takenByCustom) {
    throw new Error(`An avatar with id "${id}" already exists — try a different name.`);
  }
  return id;
}

// Creates a new custom avatar. `data`: { name, image, rarity, shopExclusive?,
// price?, monthlyExclusive?, monthKey? }. Returns the new catalog entry.
async function addCustomAvatar(data) {
  const id = validateCustomAvatarData(data);
  const entry = {
    id,
    name: data.name.trim(),
    image: data.image.trim(),
    rarity: data.rarity,
    ...(data.shopExclusive ? { shopExclusive: true, price: Math.max(0, Number(data.price)) } : {}),
    ...(data.monthlyExclusive ? { monthlyExclusive: true, monthKey: data.monthKey } : {}),
    ...(data.lockedUntilMonthKey ? { lockedUntilMonthKey: data.lockedUntilMonthKey } : {}), // Issue #391
  };
  const next = [..._customAvatarCache, entry];
  await storageSet(CUSTOM_AVATAR_CATALOG_KEY, next, true);
  _customAvatarCache = next;
  return entry;
}

async function updateCustomAvatar(id, data) {
  if (!_customAvatarCache.some((a) => a.id === id)) throw new Error("Avatar not found.");
  validateCustomAvatarData(data, { existingId: id });
  const entry = {
    id,
    name: data.name.trim(),
    image: data.image.trim(),
    rarity: data.rarity,
    ...(data.shopExclusive ? { shopExclusive: true, price: Math.max(0, Number(data.price)) } : {}),
    ...(data.monthlyExclusive ? { monthlyExclusive: true, monthKey: data.monthKey } : {}),
    ...(data.lockedUntilMonthKey ? { lockedUntilMonthKey: data.lockedUntilMonthKey } : {}), // Issue #391
  };
  const next = _customAvatarCache.map((a) => (a.id === id ? entry : a));
  await storageSet(CUSTOM_AVATAR_CATALOG_KEY, next, true);
  _customAvatarCache = next;
  return entry;
}

async function removeCustomAvatar(id) {
  const next = _customAvatarCache.filter((a) => a.id !== id);
  await storageSet(CUSTOM_AVATAR_CATALOG_KEY, next, true);
  _customAvatarCache = next;
}

// Issue #204 — CSS class per rarity tier for the colored ring/card treatment.
// "common" intentionally maps to the plain existing saffron look (no new
// class needed) so untouched avatars render exactly as before.
const AVATAR_RARITY_RING_CLASS = {
  common:    "avatar-ring-common",
  uncommon:  "avatar-ring-uncommon",
  rare:      "avatar-ring-rare",
  epic:      "avatar-ring-epic",
  legendary: "avatar-ring-legendary",
};
function getAvatarRingClass(avatar) {
  return AVATAR_RARITY_RING_CLASS[avatar?.rarity] || "";
}

// Issue #205 — Store screen: human-readable rarity label for badges.
const RARITY_LABEL = { common: "Common", uncommon: "Uncommon", rare: "Rare", epic: "Epic", legendary: "Legendary" };
const RARITY_STARS_MAP = { common: 1, uncommon: 2, rare: 3, epic: 4, legendary: 5 };

// Issue #168 — fallback price for a shop-exclusive avatar with no explicit
// `price` (keeps the shop working even if a future catalog entry forgets one).
const SHOP_AVATAR_PRICE = 500;

// Issue #216 — teacher-editable price override, so a shop price can change
// without a code deploy (same "trust the teacher, no code redeploy" pattern
// as AVATAR_POWERS_CONFIG_KEY from #214). Shared KV: { [avatarId]: number }.
// getAvatarPrice() is the single source of truth every price read should go
// through — override first, then the catalog's own `price`, then the flat
// SHOP_AVATAR_PRICE fallback.
const AVATAR_PRICE_OVERRIDES_KEY = "avatar-price-overrides"; // shared

function getAvatarPrice(avatar, overrides) {
  const override = overrides?.[avatar?.id];
  if (typeof override === "number") return override;
  return avatar?.price || SHOP_AVATAR_PRICE;
}

async function getAvatarPriceOverrides() {
  return (await storageGet(AVATAR_PRICE_OVERRIDES_KEY, true)) || {};
}

function getAvatarById(id, catalog = getFullAvatarCatalog()) {
  return catalog.find((a) => a.id === id) || catalog.find((a) => a.id === DEFAULT_AVATAR_ID);
}

// Avatars eligible for the random unlock draw: not the default, not
// shop-exclusive, and — bug fix alongside #176 — not monthlyExclusive
// either. Monthly Cat avatars (#181) must ONLY come from the monthly
// challenge or a teacher gift; without this exclusion they'd have been
// eligible for the ordinary #162 random draw too, defeating their
// exclusivity (caught while wiring up #176's gift categories).
function getPrizePoolAvatars(catalog = getFullAvatarCatalog(), date = new Date()) {
  return catalog.filter((a) => !a.isDefault && !a.shopExclusive && !a.monthlyExclusive && !isAvatarLocked(a, date));
}

// Issue #181 — this calendar month's exclusive cat, if the art/catalog entry
// has been shipped yet (returns null otherwise, which the monthly engine
// treats as "nothing to grant this month").
function getMonthlyCatAvatar(monthKey, catalog = getFullAvatarCatalog()) {
  return catalog.find((a) => a.monthlyExclusive && a.monthKey === monthKey) || null;
}

// Issue #203 — teachers now get a display avatar too (they previously had
// none, just a shield+name). It's ALWAYS the current calendar month's
// Gatinho do Mês — never selectable, never any other catalog avatar — so
// the teacher can't "spoil" the shop/gacha costumes by wearing something a
// student is still grinding toward. It's purely computed live from today's
// date; nothing is persisted or unlocked for the teacher. Falls back to the
// default avatar for any month that hasn't shipped art yet.
function getTeacherDisplayAvatar(catalog = getFullAvatarCatalog()) {
  return getMonthlyCatAvatar(getMonthKey(), catalog) || getAvatarById(DEFAULT_AVATAR_ID, catalog);
}

// ---------------------------------------------------------------------------
// Issue #184 / #214 — Avatar special powers (Phase 1: catalog + data model).
//
// Three power mechanics, not mutually exclusive at the catalog level (an
// avatar's *assignment*, set by the teacher in Phase 2, picks one shape):
//   - "simple"    consumable — every rarity tier gets exactly one of these
//   - "special"   consumable — Rare+ only, a second independent charge/cooldown
//   - "passive"   no charge at all, always equipped; some are time-window-gated
//
// Recharge cadence is a property of the AVATAR'S RARITY, not of the power
// itself (owner decision 2026-07-07, see issue #184 discussion) — the same
// "simple" power recharges faster on a Legendary avatar than on a Common one.
// RARITY_POWER_COOLDOWN below is that table. "passive" powers have no
// cooldown entry — they're never on a charge/cooldown cycle.
const RARITY_POWER_COOLDOWN = {
  common:    { simple: 5 },              // 1 charge / 5 days
  uncommon:  { simple: 3 },              // 1 charge / 3 days
  rare:      { simple: 3, special: 7 },  // simple / 3d, special / 7d (weekly)
  epic:      { simple: 3, special: 5 },  // simple / 3d, special / 5d
  legendary: { simple: 2, special: 3 },  // simple / 2d, special / 3d
};

// Daily time windows for window-gated passive powers (Asia/Bangkok, GMT+7 —
// matches the project's existing timezone convention). Issue #287 — each
// window now maps 1:1 to a single named power (coins_50_morning/afternoon/
// evening/night below), so these ranges are a clean same-day partition,
// no more deliberate overlap.
const POWER_TIME_WINDOWS = {
  morning:   { startHour: 6,  endHour: 12 },             // 06:00–12:00
  afternoon: { startHour: 12, endHour: 18 },             // 12:00–18:00
  evening:   { startHour: 18, endHour: 22 },             // 18:00–22:00
  night:     { startHour: 22, endHour: 30 },             // 22:00–06:00 (+1d), endHour>24 = wraps past midnight
  allday:    null,                                       // always active, no window check
};

// mechanic: "simple" | "special" | "passive"
// effect:   free-form params consumed by the Phase 3 effect logic — kept
//           here (not invented ad hoc at call sites) so Phase 3 has a single
//           source of truth to read from.
// duration: "session" (consumed by completing one Practice/Sunday Test
//           session) | "1day" | "3h" | null (passive/instant, no timer)
// Issue #289 — appliesTo: which activity PowerBar screen(s) a power is
// meaningful in (drives display filtering, so e.g. "Freeze streak" never
// shows up inside Practice Mode/Sunday Test — it's auto-consumed by a
// streak-gap event elsewhere, not something you "activate" mid-activity).
// [] = never shown in an activity PowerBar: either it's global/meta (surfaced
// in its own dedicated spot — Home streak banner, exam-unlock button, Gacha
// screen) or genuinely inert right now (Berserk Mode doesn't exist yet, #52).
// Issue #295 — the old "sundaytest_countdown_25" dead power (Sunday Test/Exam
// have no countdown to multiply) was removed entirely rather than kept inert.
const POWER_CATALOG = [
  // --- Simple (consumable, every rarity tier) ---------------------------
  { id: "coins_25_session",      mechanic: "simple",  duration: "session", appliesTo: ["practice", "sundayTest"],
    name: "🪙A Tip for you • Get Extra 25% coins", desc: "Increases Meowtongs earned by 25% for a single session.",
    effect: { type: "coinsMultiplierBonus", value: 0.25 } },
  { id: "pause_countdown_session", mechanic: "simple", duration: "session", appliesTo: ["practice"],
    name: "🖐🏼รอสักครู่ • Pause the Practice Mode Countdown", desc: "Pauses the activity countdown for a single session.",
    effect: { type: "pauseCountdown" } },
  { id: "remove_wrong_session",  mechanic: "simple",  duration: "session", appliesTo: ["sundayTest"],
    name: "🤓I know this one • Remove a wrong MC answer", desc: "Removes one wrong option for a single session.",
    effect: { type: "removeWrongOption" } },

  // --- Special (consumable, Rare+ only) ---------------------------------
  { id: "streak_freeze_1day",    mechanic: "special", duration: null, appliesTo: [],
    name: "🧊ไม่เป็นไร • Skip one missed day, keep your streak", desc: "Protects the streak from a single missed day.",
    effect: { type: "streakFreeze", maxPerWeek: 1 } },
  { id: "streak_freeze_multi_week", mechanic: "special", duration: null, appliesTo: [],
    name: "🛡️สบายใจ • Keep your streak even after several missed days", desc: "Protects the streak from more than one missed day in the same week.",
    effect: { type: "streakFreeze", maxPerWeek: 99 } },
  { id: "coins_50_3h",           mechanic: "special", duration: "3h", appliesTo: ["practice", "sundayTest"],
    name: "🪙🪙Quick treat • Get Extra 50% coins for a few hours", desc: "Increases Meowtongs earned by 50% for 3 hours.",
    effect: { type: "coinsMultiplierBonus", value: 0.50 } },
  { id: "coins_75_3h",           mechanic: "special", duration: "3h", appliesTo: ["practice", "sundayTest"],
    name: "🤑Feeling lucky • Get Extra 75% coins for a few hours", desc: "Increases Meowtongs earned by 75% for 3 hours.",
    effect: { type: "coinsMultiplierBonus", value: 0.75 } },
  { id: "coins_100_3h",          mechanic: "special", duration: "3h", appliesTo: ["practice", "sundayTest"],
    name: "💰Jackpot hour • Get Double coins for a few hours", desc: "Doubles Meowtongs earned for 3 hours.",
    effect: { type: "coinsMultiplierBonus", value: 1.00 } },
  { id: "remove_wrong_1day",     mechanic: "special", duration: "1day", appliesTo: ["sundayTest"],
    name: "🤓Smarty pants • Remove a wrong MC answer, all day", desc: "Removes one wrong option in every multiple-choice exercise for a full day.",
    effect: { type: "removeWrongOption" } },
  { id: "countdown_50_1day",     mechanic: "special", duration: "1day", appliesTo: ["practice"],
    name: "🐢ใจเย็นๆ • Get more time to answer, all day", desc: "Countdown is 50% longer for a full day.",
    effect: { type: "countdownMultiplier", value: 1.50 } },
  { id: "practice_no_countdown_1day", mechanic: "special", duration: "1day", appliesTo: ["practice"],
    name: "🧘No rush • Practice Mode with no countdown, all day", desc: "Practice Mode runs without an activity countdown for a full day.",
    effect: { type: "disableCountdown", scope: "practice" } },
  { id: "berserk_hard_5s",       mechanic: "special", duration: "1day", appliesTo: [],
    name: "Berserk Hard +5s",            desc: "Berserk Mode Hard tier gets +5 extra seconds on the countdown.",
    effect: { type: "berserkCountdownBonus", tier: "hard", seconds: 5 }, dependsOnIssue: 52 }, // inert until Berserk Mode ships (#52) — internal only, not user-facing
  { id: "berserk_medium_5s",     mechanic: "special", duration: "1day", appliesTo: [],
    name: "Berserk Medium +5s",          desc: "Berserk Mode Medium tier gets +5 extra seconds on the countdown.",
    effect: { type: "berserkCountdownBonus", tier: "medium", seconds: 5 }, dependsOnIssue: 52 }, // inert until Berserk Mode ships (#52) — internal only, not user-facing
  { id: "berserk_easy_5s",       mechanic: "special", duration: "1day", appliesTo: [],
    name: "Berserk Easy +5s",            desc: "Berserk Mode Easy tier gets +5 extra seconds on the countdown.",
    effect: { type: "berserkCountdownBonus", tier: "easy", seconds: 5 }, dependsOnIssue: 52 }, // inert until Berserk Mode ships (#52) — internal only, not user-facing
…
.sa-cats-chart { display: flex; align-items: center; gap: 20px; margin-top: 8px; }
.sa-donut-svg { width: 140px; height: 140px; flex-shrink: 0; }
.sa-donut-legend { display: flex; flex-direction: column; gap: 8px; flex: 1; }
.sa-donut-legend-item { display: flex; align-items: center; gap: 8px; }
.sa-donut-legend-dot { width: 10px; height: 10px; border-radius: 50%; flex-shrink: 0; }
.sa-donut-legend-lbl { flex: 1; font-size: 12px; }
.sa-donut-legend-val { font-size: 13px; font-weight: 800; }

/* Resources & Wallet */
.sa-wallet-card {}
.sa-wallet-list { display: flex; flex-direction: column; gap: 2px; margin-top: 4px; }
.sa-wallet-line {
  display: flex; align-items: center; gap: 10px;
  padding: 6px 0; border-bottom: 1px solid rgba(255,255,255,0.06);
}
.sa-wallet-line:last-child { border-bottom: none; }
.sa-wallet-icon { width: 28px; height: 28px; object-fit: contain; flex-shrink: 0; }
.sa-wallet-lbl { flex: 1; font-size: 13px; }
.sa-wallet-val { font-size: 15px; font-weight: 800; color: #D4AF37; }
.sa-wallet-synced { font-size: 10px; opacity: 0.35; margin-top: 6px; }

@media (max-width: 800px) {
  .sa-top-row { grid-template-columns: 1fr; }
  .sa-mid-row { grid-template-columns: 1fr; }
  .sa-bottom-row { grid-template-columns: 1fr; }
  .sa-actions-body { grid-template-columns: 1fr; }
  .sa-profile-card { flex-direction: column; }
}

/* ── #518 — Forgot PIN / Security question ── */
.forgot-pin-link {
  display: block; width: 100%; background: none; border: none;
  color: rgba(245,239,230,0.5); font-size: 12px; cursor: pointer;
  margin-top: 6px; text-align: center; padding: 4px 0;
}
.forgot-pin-link:hover { opacity: 1; text-decoration: underline; }
.forgot-pin-steps {
  display: flex; justify-content: center; gap: 8px; margin-bottom: 16px;
}
.forgot-pin-step-dot {
  width: 8px; height: 8px; border-radius: 50%;
  background: rgba(255,255,255,0.2); transition: background 0.2s;
}
.forgot-pin-step-dot.active { background: var(--accent, #8E6BAE); }
.forgot-pin-step-dot.done   { background: #2F6E5C; }
.stg-security-setup { display: flex; flex-direction: column; gap: 0; }
.stg-select {
  width: 100%; padding: 9px 12px; border-radius: 8px; font-size: 14px;
  background: var(--card-bg, rgba(255,255,255,0.07));
  border: 1px solid rgba(255,255,255,0.15); color: inherit;
}

/* ── #516 — App version footer in Settings ── */
.settings-version-footer {
  text-align: center; font-size: 11px; opacity: 0.3; padding: 18px 0 8px;
  letter-spacing: 0.05em;
}
/* #527 — version badge below Settings title */
.settings-version-header {
  font-size: 11px; font-weight: 600; letter-spacing: 0.06em;
  color: var(--accent); opacity: 0.7;
  margin-top: -10px; margin-bottom: 12px;
}

/* ── #517 — Wish History load-more button ── */
.gacha-history-load-more {
  display: block; width: 100%; margin-top: 12px; padding: 10px;
  background: transparent; border: 1px solid rgba(255,255,255,0.15);
  border-radius: 8px; color: inherit; opacity: 0.6; cursor: pointer;
  font-size: 13px;
}
.gacha-history-load-more:hover { opacity: 1; background: rgba(255,255,255,0.06); }
.gacha-odds-toggle { background: rgba(255,255,255,0.06); border: 1px solid rgba(255,255,255,0.12); border-radius: 999px; padding: 3px 10px; font-size: 11px; font-weight: 600; color: rgba(245,239,230,0.7); cursor: pointer; transition: background .15s; }
.gacha-odds-toggle:hover { background: rgba(255,255,255,0.12); }
.gacha-odds-section { background: rgba(255,255,255,0.03); border: 1px solid rgba(255,255,255,0.08); border-radius: 10px; padding: 10px 12px; margin-top: 4px; }

/* ── Issue #346 — Transactions tab (Store) ── */
.txn-day-group { margin-bottom: 18px; }
/* Issue #402 — was color: var(--ink-soft) (#2B3060, a dark navy meant for
   light backgrounds) against this screen's dark --ink background — very low
   contrast. Switched to the --ivory + opacity pattern already used for muted
   secondary text elsewhere in this file (e.g. .stat-label), which keeps the
   same "quieter than the main text" hierarchy but stays legible. */
.txn-day-header { font-size: var(--text-sm); font-weight: 600; color: var(--ivory); opacity: 0.6; margin-bottom: 6px; padding-left: 2px; }
.txn-row { display: flex; align-items: center; gap: 10px; padding: 10px 4px; border-bottom: 1px solid var(--line); }
.txn-row:last-child { border-bottom: none; }
.txn-icon-gain { color: var(--cha-verde); flex-shrink: 0; }
.txn-icon-spend { color: var(--lacquer); flex-shrink: 0; }
.txn-row-main { flex: 1; min-width: 0; }
.txn-reason { font-size: var(--text-base); overflow: hidden; text-overflow: ellipsis; white-space: nowrap; }
.txn-time { font-size: var(--text-xs); color: var(--ivory); opacity: 0.6; margin-top: 1px; }
.txn-row-amounts { text-align: right; flex-shrink: 0; }
.txn-delta { font-weight: 700; font-size: var(--text-base); }
.txn-delta-gain { color: var(--cha-verde); }
.txn-delta-spend { color: var(--lacquer); }
.txn-balance { display: flex; align-items: center; justify-content: flex-end; gap: 3px; font-size: var(--text-xs); color: var(--ivory); opacity: 0.6; margin-top: 1px; }

/* ── Issue #347 — Gacha Wish History + pity ── */
/* Issue #364 — force the header full-width + push the button flush right,
   regardless of how much text the .page-sub description wraps to. */
.gacha-tab-header { display: flex; align-items: flex-start; justify-content: space-between; gap: 10px; width: 100%; }
.gacha-history-btn {
  /* Issue #396 — was color: var(--ink) (#14172E, near-black) on a translucent
     dark card background — almost unreadable. Switched to --ivory, same
     high-contrast text color used by every other label/button in this
     dark theme. */
  flex-shrink: 0; background: var(--card, rgba(255,255,255,0.06)); border: 1px solid var(--line);
  color: var(--ivory); border-radius: 10px; padding: 8px 12px; font-size: var(--text-sm); font-weight: 600;
  cursor: pointer; white-space: nowrap;
}
.gacha-history-btn:hover { border-color: var(--saffron, currentColor); }
.gacha-history-modal { max-width: 480px; width: 100%; max-height: 80vh; overflow-y: auto; scrollbar-width: thin; scrollbar-color: rgba(245,239,230,0.18) transparent; }
.gacha-pity-row { display: flex; gap: 10px; margin-bottom: 16px; }
.gacha-pity-tile { flex: 1; border: 1px solid var(--line); border-radius: 10px; padding: 10px 12px; text-align: center; }
.gacha-pity-label { font-size: var(--text-xs); color: var(--saffron); margin-bottom: 4px; }
.gacha-pity-count { font-size: var(--text-lg, 18px); font-weight: 700; }
/* Issue #381 — hard-pity-without-jackpot guarantee note (#351 decision 4),
   shown above the Wish History list, same warm-note treatment already used
   for the pity-boost line in GachaTicketModal (~14020) but in the Solstice
   accent so it visually ties back to the pity tile above it. */
.gacha-guarantee-note {
  font-size: var(--text-sm, 13px); color: var(--solstice, #E8557A); font-weight: 600;
  text-align: center; margin: 0 0 14px; padding: 8px 12px;
  border: 1px solid rgba(232,85,122,0.4); border-radius: 10px; background: rgba(232,85,122,0.12);
}
.gacha-history-kind-badge {
  flex-shrink: 0; font-size: var(--text-xs); font-weight: 700; padding: 3px 8px; border-radius: 8px;
  animation: none !important; /* the ring classes animate/glow — too busy at badge size */
}
.gacha-rarity-uncommon  { color: #6EE796; }
.gacha-rarity-rare      { color: #C494FF; }
.gacha-rarity-epic      { color: #FF8C42; }
.gacha-rarity-legendary { color: #FFD65C; }
.gacha-pity-hint { color: var(--saffron); font-weight: 600; margin-top: -4px; }

/* ---------------------------------------------------------------------------
   LP2 — Manage Lessons Modal
--------------------------------------------------------------------------- */
.lp-manage-modal { max-width: 820px; width: 96vw; max-height: 90vh; display: flex; flex-direction: column; }
.lp-manage-body  { display: flex; flex: 1; min-height: 0; gap: 0; overflow: hidden; }
/* Issue #521 — tab mode: fills the content area below the nav bar */
/* #529 — position:fixed gives a bounded height so inner flex scroll works */
.lp-manage-tab-screen {
  position: fixed; left: 0; right: 0; top: 72px; bottom: 70px;
  display: flex; flex-direction: column; overflow: hidden;
  background: var(--bg);
}

/* Left panel — lesson list */
.lp-manage-list {
  width: 240px; flex-shrink: 0;
  border-right: 1px solid color-mix(in srgb, var(--accent) 15%, transparent);
  overflow-y: auto; padding: 12px; scrollbar-width: thin; scrollbar-color: rgba(245,239,230,0.18) transparent;
  display: flex; flex-direction: column; gap: 8px;
}
.lp-manage-code-row { display: flex; gap: 6px; align-items: center; }
.lp-code-select { flex: 1; font-size: 13px; padding: 5px 8px; border-radius: 8px;
  border: 1px solid color-mix(in srgb, var(--accent) 40%, transparent);
  background: var(--bg, #fff); color: var(--ink);
  /* Issue #426 — var(--card) no tema escuro era quase idêntico ao bg do modal,
     causando texto ilegível nos <option>s (especialmente no Windows).
     Usar var(--bg) garante que o <select> sempre contraste com o fundo do modal-card. */ }
.lp-new-btn { font-size: 12px; padding: 5px 8px; display: flex; align-items: center; gap: 4px; }
.lp-add-code-btn { font-size: 11px; padding: 4px 8px; display: flex; align-items: center; gap: 4px; align-self: flex-start; }
.lp-newcode-row { display: flex; gap: 4px; align-items: center; }
.lp-code-toast { font-size: 12px; font-weight: 600; color: #fff; background: var(--success, #2F6E5C); border-radius: 8px; padding: 6px 12px; animation: lp-toast-in 0.2s ease; }
@keyframes lp-toast-in { from { opacity: 0; transform: translateY(-4px); } to { opacity: 1; transform: none; } }
.lp-newcode-input { flex: 1; font-size: 12px; padding: 4px 8px; border-radius: 8px; border: 1px solid color-mix(in srgb, var(--accent) 40%, transparent); background: var(--card); color: var(--ink); text-transform: uppercase; }
.lp-newcode-confirm { font-size: 11px; padding: 4px 10px; }
.lp-newcode-cancel  { font-size: 11px; padding: 4px 8px; }
.lp-newcode-cefr-select { font-size: 12px; padding: 4px 8px; border-radius: 8px; border: 1px solid color-mix(in srgb, var(--accent) 40%, transparent); background: var(--card); color: var(--ink); width: 100%; }
.lp-code-cefr-row { display: flex; align-items: center; gap: 6px; padding: 4px 0 2px; }
.lp-code-cefr-badge { font-size: 11px; font-weight: 700; letter-spacing: .04em; text-transform: uppercase; color: var(--accent); }
.lp-code-cefr-edit { font-size: 10px; padding: 2px 8px; }

/* #795 — cat walk animation */
.lp-cat-walk {
  position: absolute;
  width: 44px;
  height: 44px;
  object-fit: contain;
  z-index: 20;
  pointer-events: none;
  transform: translate(-50%, -50%);
  transition: left 1200ms ease-in-out, top 1200ms ease-in-out;
}
.lp-cat-walk--flip { transform: translate(-50%, -50%) scaleX(-1); }
.lp-cat-walk--moving { animation: lp-cat-bounce 320ms ease-in-out infinite; }
.lp-cat-walk--arrived { animation: lp-cat-arrive 500ms ease-out forwards; }
@keyframes lp-cat-bounce {
  0%, 100% { margin-top: 0; }
  50%       { margin-top: -6px; }
}
@keyframes lp-cat-arrive {
  0%   { transform: translate(-50%, -50%) scale(1); }
  40%  { transform: translate(-50%, -60%) scale(1.25); }
  70%  { transform: translate(-50%, -50%) scale(0.9); }
  100% { transform: translate(-50%, -50%) scale(1); }
}

/* #801 — EnergyInsufficientModal */
.eim-card {
  background: #181028;
  border: 1px solid rgba(255,255,255,.12);
  border-radius: 20px;
  padding: 28px 24px 24px;
  width: min(400px, 92vw);
  position: relative;
  display: flex;
  flex-direction: column;
  gap: 20px;
  box-shadow: 0 8px 40px rgba(0,0,0,.6);
}
.eim-close {
  position: absolute;
  top: 14px; right: 16px;
  background: none; border: none;
  color: rgba(255,255,255,.4);
  font-size: 18px; cursor: pointer;
  line-height: 1;
}
.eim-close:hover { color: #fff; }
.eim-header { display: flex; align-items: center; gap: 14px; }
.eim-icon { font-size: 36px; line-height: 1; flex-shrink: 0; }
.eim-title { font-size: 18px; font-weight: 700; color: #fff; }
.eim-subtitle { font-size: 13px; color: rgba(255,255,255,.55); margin-top: 3px; }
.eim-subtitle strong { color: #ffd166; }
.eim-bar-section { display: flex; flex-direction: column; gap: 6px; }
.eim-bar-label { display: flex; justify-content: space-between; font-size: 12px; color: rgba(255,255,255,.5); }
.eim-bar-nums { color: rgba(255,255,255,.75); font-variant-numeric: tabular-nums; }
.eim-bar-track {
  position: relative;
  height: 12px;
  background: rgba(255,255,255,.1);
  border-radius: 6px;
  overflow: visible;
}
.eim-bar-fill {
  height: 100%;
  background: linear-gradient(90deg, #f4a261, #e76f51);
  border-radius: 6px;
  transition: width .4s ease;
}
.eim-bar-needed-mark {
  position: absolute;
  top: -4px; bottom: -4px;
  width: 2px;
  background: #ffd166;
  border-radius: 1px;
  transform: translateX(-50%);
}
.eim-recharge { font-size: 13px; color: rgba(255,255,255,.5); }
.eim-recharge strong { color: rgba(255,255,255,.8); }
.eim-powers-section { display: flex; flex-direction: column; gap: 10px; }
.eim-powers-title { font-size: 11px; font-weight: 600; letter-spacing: .08em; text-transform: uppercase; color: rgba(255,255,255,.35); }
.eim-power-card {
  display: flex; align-items: center; gap: 12px;
  background: rgba(255,255,255,.05);
  border: 1px solid rgba(255,255,255,.08);
  border-radius: 12px;
  padding: 12px 14px;
}
.eim-power-passive { opacity: .7; }
.eim-power-emoji { font-size: 24px; flex-shrink: 0; }
.eim-power-info { flex: 1; min-width: 0; }
.eim-power-name { font-size: 13px; font-weight: 600; color: #fff; }
.eim-power-desc { font-size: 11px; color: rgba(255,255,255,.45); margin-top: 2px; }
.eim-power-action { flex-shrink: 0; }
.eim-activate-btn {
  background: linear-gradient(135deg, #7c3aed, #4f46e5);
  border: none; border-radius: 8px;
  color: #fff; font-size: 12px; font-weight: 700;
  padding: 6px 14px; cursor: pointer;
  transition: opacity .15s;
}
.eim-activate-btn:hover { opacity: .85; }
.eim-activate-btn:disabled { opacity: .5; cursor: default; }
.eim-power-badge {
  font-size: 10px; font-weight: 600; letter-spacing: .05em;
  border-radius: 6px; padding: 3px 8px;
}
.eim-badge-passive { background: rgba(255,255,255,.1); color: rgba(255,255,255,.5); }
.eim-badge-cooldown { background: rgba(255,80,80,.12); color: #f87171; }

/* #797 — CalligraphyPreviewModal calibration panel */
.calli-preview-modal-card { max-width: 680px; width: 96vw; }
.calli-preview-body { display: flex; flex-direction: column; gap: 12px; }
.calli-preview-row { display: flex; align-items: center; gap: 10px; flex-wrap: wrap; }
.calli-preview-stage-row { display: flex; gap: 20px; align-items: flex-start; }
.calli-calib-panel { flex: 1; min-width: 180px; display: flex; flex-direction: column; gap: 4px; }
.calli-calib-section-label { font-size: 10px; font-weight: 700; text-transform: uppercase; letter-spacing: .06em; color: var(--ink-muted); margin-top: 2px; }
.calli-calib-row { display: flex; align-items: center; gap: 6px; font-size: 11px; color: var(--ink); }
.calli-calib-row input[type=range] { flex: 1; min-width: 0; accent-color: var(--accent); }
.calli-calib-val { font-size: 10px; font-variant-numeric: tabular-nums; min-width: 34px; text-align: right; color: var(--ink-muted); }
.calli-calib-output { margin-top: 6px; font-size: 10px; font-family: monospace; width: 100%; resize: none; height: 48px; border-radius: 6px; border: 1px solid var(--line); background: var(--card); color: var(--ink-muted); padding: 4px 6px; cursor: pointer; }

/* #528 / #533 — increased contrast for lesson sidebar items */
.lp-section-label { font-size: 10px; font-weight: 700; text-transform: uppercase;
  letter-spacing: 0.07em; color: #e9f2dd; padding: 4px 2px 2px; }
.lp-section-group { display: flex; flex-direction: column; gap: 2px; }
.lp-section-meta-editor { display: flex; gap: 6px; align-items: center; padding: 4px 2px 6px; }
.lp-section-name-input {
  flex: 1; min-width: 0; font-size: 13px; padding: 4px 8px;
  background: rgba(255,255,255,0.07); border: 1px solid rgba(255,255,255,0.15);
  border-radius: 6px; color: var(--ivory); outline: none;
}
.lp-section-name-input:focus { border-color: rgba(255,200,100,0.5); }
.lp-section-name-input::placeholder { opacity: 0.4; }
.lp-section-font-select {
  font-size: 11px; padding: 4px 6px; border-radius: 6px;
  background: rgba(255,255,255,0.07); border: 1px solid rgba(255,255,255,0.15);
  color: var(--ivory); outline: none; cursor: pointer; flex-shrink: 0;
}
.lp-section-font-select:focus { border-color: rgba(255,200,100,0.5); }
.lp-lesson-row {
  padding: 7px 10px; border-radius: 8px; cursor: pointer;
  display: flex; justify-content: space-between; align-items: center;
  transition: background 0.15s;
  background: #dde4f2; color: #14172e;
}
.lp-lesson-row:hover              { background: color-mix(in srgb, var(--accent) 16%, transparent); }
.lp-lesson-row.active             { background: #f9edd8; color: #14172e; border-left: 3px solid var(--accent); padding-left: 7px; }
.lp-lesson-row-locked             { opacity: 0.7; }
.lp-lesson-title { font-size: 13px; font-weight: 600; color: var(--ink); }
.lp-lesson-meta  { font-size: 11px; color: var(--ink); opacity: 0.6; }
/* #704 — lock/unlock button in lesson list */
.lp-lock-btn { background: none; border: none; cursor: pointer; font-size: 15px; padding: 2px 4px; border-radius: 4px; opacity: 0.5; transition: opacity 0.15s; flex-shrink: 0; }
.lp-lock-btn:hover    { opacity: 1; }
.lp-lock-btn-on       { opacity: 1; }
/* #704 — teacher-locked node style (dim, no pulse) */
.lp-node-teacher-locked { background: color-mix(in srgb, var(--accent) 20%, #888) !important; opacity: 0.6; cursor: not-allowed; }

/* Right panel — form */
.lp-manage-form { flex: 1; min-height: 0; display: flex; flex-direction: column; }
.lp-form-title  { font-size: 15px; font-weight: 700; }
/* Issue #523 — header fixo + steps com scroll próprio */
.lp-form-sticky-header { flex-shrink: 0; padding: 16px 20px 12px; display: flex; flex-direction: column; gap: 12px; border-bottom: 1px solid color-mix(in srgb, var(--accent) 15%, transparent); }
.lp-form-steps-scroll  { flex: 1; overflow-y: auto; padding: 12px 20px 16px; display: flex; flex-direction: column; gap: 12px; scrollbar-width: thin; scrollbar-color: rgba(245,239,230,0.18) transparent; }
.lp-form-row    { display: flex; gap: 12px; }
.lp-input {
  width: 100%; padding: 7px 10px; border-radius: 8px; font-size: 14px;
  border: 1px solid color-mix(in srgb, var(--accent) 25%, transparent);
  background: #dfe1f2; color: #14172e;
}
.lp-steps-header { display: flex; justify-content: space-between; align-items: center; }
.lp-add-step-btn { font-size: 12px; padding: 4px 10px; display: flex; align-items: center; gap: 4px; }

/* Step cards */
.lp-step-card {
  background: #282d4e;
  border: 1px solid color-mix(in srgb, var(--accent) 45%, transparent);
  border-radius: 10px; padding: 10px 12px;
  display: flex; flex-direction: column; gap: 8px;
}
.lp-step-header { display: flex; justify-content: space-between; align-items: center; }
.lp-step-type-badge {
  display: flex; align-items: center; gap: 4px;
  font-size: 11px; font-weight: 700; text-transform: uppercase; letter-spacing: 0.06em;
  color: var(--accent); background: color-mix(in srgb, var(--accent) 20%, transparent);
  padding: 3px 8px; border-radius: 999px;
}
.lp-step-actions { display: flex; gap: 2px; }
.lp-step-word-preview {
  display: flex; align-items: center; gap: 8px;
  background: color-mix(in srgb, var(--accent) 8%, transparent);
  border-radius: 8px; padding: 6px 10px;
}
.lp-preview-en   { font-family: var(--font-english); font-size: 18px; font-weight: 600; }
.lp-preview-thai { font-family: var(--font-thai); font-size: 12px; color: var(--ink-soft); flex: 1; }
.lp-word-search  { display: flex; flex-direction: column; gap: 4px; }
.lp-word-search-input-wrap {
  display: flex; align-items: center; gap: 6px;
  border: 1px solid color-mix(in srgb, var(--accent) 25%, transparent);
  border-radius: 8px; padding: 6px 10px; background: var(--card);
}
.lp-word-search-input { flex: 1; border: none; background: transparent; font-size: 13px; color: var(--ink); outline: none; }
.lp-word-results { display: flex; flex-direction: column; border-radius: 8px; overflow: hidden;
  border: 1px solid color-mix(in srgb, var(--accent) 15%, transparent); }
.lp-word-result-row {
  display: flex; align-items: center; gap: 10px; padding: 7px 12px;
  background: var(--card); border: none; cursor: pointer; text-align: left;
  border-bottom: 1px solid color-mix(in srgb, var(--accent) 10%, transparent);
  transition: background 0.12s;
}
.lp-word-result-row:last-child { border-bottom: none; }
.lp-word-result-row:hover { background: color-mix(in srgb, var(--accent) 10%, transparent); }
.lp-word-empty  { font-size: 12px; color: var(--ink-soft); padding: 4px 2px; }
.lp-tip-input {
  width: 100%; resize: vertical; border-radius: 8px; padding: 8px 10px;
  font-size: 13px; border: 1px solid color-mix(in srgb, var(--accent) 45%, transparent);
  background: #dfe1f2; color: #14172e; font-family: inherit;
}

@media (max-width: 600px) {
  .lp-manage-body  { flex-direction: column; }
  .lp-manage-list  { width: 100%; border-right: none; border-bottom: 1px solid color-mix(in srgb, var(--accent) 15%, transparent); max-height: 180px; }
}

/* ---------------------------------------------------------------------------
   LP3 — Lesson Player Modal
--------------------------------------------------------------------------- */
/* Fullscreen player (replaces modal) */
.lp-player-fullscreen {
  position: fixed; inset: 0; z-index: 9000;
  background: var(--ink);
  display: flex; flex-direction: column;
  overflow: hidden;
}
/* Topbar inside fullscreen player — spacer only, matches app header height */
.lp-player-topbar { min-height: 72px; flex-shrink: 0; background: var(--ink); }

/* Lesson sub-header */
.lp-player-header {
  display: flex; align-items: center; gap: 8px;
  padding: 10px 16px 8px;
  flex-shrink: 0;
  border-bottom: 1px solid color-mix(in srgb, var(--accent) 12%, transparent);
}
/* Close button — rounded square with visible background */
.lp-player-fullscreen .lp-close-btn {
  flex-shrink: 0;
  background: rgba(255,255,255,0.18);
  border-radius: 8px; width: 36px; height: 36px; padding: 0;
  display: flex; align-items: center; justify-content: center;
  color: #fff;
  border: 1px solid rgba(255,255,255,0.25);
}
.lp-player-title {
  flex: 1; font-size: 14px; font-weight: 700; text-align: center;
  overflow-wrap: break-word; line-height: 1.25;
  min-width: 0;
}
.lp-player-count { font-size: 12px; color: rgba(255,255,255,0.35); white-space: nowrap; flex-shrink: 0; display: flex; align-items: center; gap: 6px; }
.lp-player-energy { color: #ffd700; font-weight: 700; }

.lp-progress-bar  { height: 7px; background: rgba(255,255,255,0.12); overflow: hidden; }
.lp-progress-fill { height: 100%; background: #D4A843; transition: width 0.3s ease; border-radius: 0 4px 4px 0; }

/* Step content */
.lp-step-content {
  flex: 1; display: flex; align-items: center; justify-content: center;
  padding: 32px 24px;
  overflow-y: auto; scrollbar-width: thin; scrollbar-color: rgba(245,239,230,0.18) transparent;
  transition: opacity 0.18s ease, transform 0.18s ease;
  background: rgba(0,0,0,0.22);
}
.lp-step-in  { opacity: 1; transform: translateX(0); }
.lp-step-out { opacity: 0; }
.lp-step-out.lp-slide-next { transform: translateX(-24px); }
.lp-step-out.lp-slide-prev { transform: translateX(24px); }

/* Vocab card */
.lp-vocab-card {
  display: flex; flex-direction: column; align-items: center; gap: 8px;
  text-align: center; width: 100%;
}
.lp-vocab-english { font-family: var(--font-english); font-size: clamp(42px, 12vw, 64px); font-weight: 700; line-height: 1.1; }
.lp-vocab-roman   { font-size: 18px; color: var(--ink-soft); }
.lp-vocab-thai    { font-family: var(--font-thai); font-size: 18px; color: var(--ink-soft); }
.lp-vocab-pos {
  font-size: 11px; font-weight: 700; text-transform: uppercase; letter-spacing: 0.07em;
  color: var(--accent); background: color-mix(in srgb, var(--accent) 12%, transparent);
  padding: 3px 10px; border-radius: 999px;
}
.lp-tts-btn { margin-top: 8px; }

/* Tip editor (ManageLessons authoring) */
.lp-tip-editor { display: flex; flex-direction: column; gap: 8px; width: 100%; }
.lp-tip-img-preview { position: relative; display: inline-block; align-self: flex-start; }
.lp-tip-thumb { display: block; height: 120px; width: auto; max-width: 100%; border-radius: 6px; object-fit: cover; }
.lp-tip-img-remove {
  position: absolute; top: -8px; right: -8px;
  width: 22px; height: 22px; border-radius: 50%; border: none; cursor: pointer;
  background: var(--ink); color: var(--bg); font-size: 14px; line-height: 1;
  display: flex; align-items: center; justify-content: center;
}
.lp-tip-upload-btn { align-self: flex-start; cursor: pointer; font-size: 12px; padding: 5px 12px; }

/* Tip card (LessonPlayer) */
/* Tip card — mobile: column; desktop com imagem: 2 colunas 70/30 */
.lp-tip-card {
  display: flex; flex-direction: column; align-items: center; gap: 16px;
  text-align: center; width: 100%;
}
.lp-tip-icon { color: var(--accent); opacity: 0.8; }
.lp-tip-img { max-width: 100%; height: auto; border-radius: 8px; }
.lp-tip-text {
  font-size: 17px; line-height: 1.6; max-width: 360px;
  background: color-mix(in srgb, var(--ink) 10%, transparent);
  border-radius: 12px; padding: 14px 18px;
}
/* Desktop 2-column layout when tip has image */
.lp-tip-card.has-image {
  flex-direction: row; align-items: stretch; gap: 0;
  text-align: left; max-width: 820px; margin: 0 auto;
}
.lp-tip-card.has-image .lp-tip-img {
  width: 70%; flex-shrink: 0; object-fit: cover;
  border-radius: 12px 0 0 12px; max-height: 420px;
}
.lp-tip-card.has-image .lp-tip-text-col {
  width: 30%; display: flex; flex-direction: column;
  justify-content: center; gap: 16px; padding: 20px 16px;
  background: color-mix(in srgb, var(--ink) 10%, transparent);
  border-radius: 0 12px 12px 0;
}
.lp-tip-card.has-image .lp-tip-text {
  background: none; padding: 0; border-radius: 0; max-width: none;
  font-size: 15px;
}
@media (max-width: 640px) {
  .lp-tip-card.has-image {
    flex-direction: column; align-items: center; text-align: center;
  }
  .lp-tip-card.has-image .lp-tip-img { width: 100%; border-radius: 12px 12px 0 0; }
  .lp-tip-card.has-image .lp-tip-text-col {
    width: 100%; border-radius: 0 0 12px 12px; padding: 14px;
  }
}
/* Listen button — round and centered */
.lp-listen-round {
  flex-direction: column; gap: 4px;
  border-radius: 50%; width: 88px; height: 88px; padding: 0;
  align-self: center;
}
.lp-listen-label { font-size: 12px; font-weight: 600; }

/* Authoring — char + distractors inputs */
.lp-step-char-row { display: flex; align-items: center; gap: 8px; flex-wrap: wrap; }
.lp-step-char-label { font-size: 11px; color: #e9f2dd; font-weight: 600; }
.lp-step-char-input { width: 44px; text-align: center; font-size: 22px; font-family: 'Inter', sans-serif; border-radius: 8px; border: 1px solid color-mix(in srgb, var(--accent) 50%, transparent); background: #dfe1f2; color: #14172e; padding: 4px; }
.lp-step-distractors-input { width: 90px; font-size: 20px; }
.lp-step-char-ok   { font-size: 11px; color: #4caf50; }
.lp-step-char-warn { font-size: 11px; color: #f0a500; }

/* Player — calligraphy step */
.lp-calli-step { display: flex; flex-direction: column; align-items: center; gap: 12px; width: 100%; }
.lp-calli-phase-label { font-size: 14px; color: var(--ink-soft); }
.lp-calli-done { display: flex; flex-direction: column; align-items: center; gap: 4px; background: rgba(20,50,30,0.85); border: 2px solid rgba(76,175,80,0.5); border-radius: 16px; padding: 20px 36px; margin: auto; }
.lp-calli-great     { font-family: var(--font-english); font-size: 52px; font-weight: 700; color: #4caf50; line-height: 1.1; }
.lp-calli-great-sub { font-size: 18px; color: #4caf50; opacity: 0.85; }
/* Player — listen & write step */
.lp-lw-actions { display: flex; gap: 10px; }
.lp-lw-reveal-char { fill: rgba(43,48,96,0.30); }
/* Player — memory check step */
.lp-mc-image { max-width: 140px; border-radius: var(--radius-md); }

/* Player avatar pin on map */
.lp-player-avatar-pin {
  position: absolute; bottom: calc(100% + 4px); left: 50%; transform: translateX(-50%);
  width: 72px; height: 72px; border-radius: 50%;
  border: 3px solid var(--accent); box-shadow: 0 2px 12px rgba(0,0,0,0.5);
  object-fit: cover; pointer-events: none;
}

/* Player — choice step (listening + image-match) */
.lp-choice-step { display: flex; flex-direction: column; align-items: center; gap: 16px; width: 100%; }
.lp-listen-round { flex-direction: row; gap: 0; border-radius: 50%; width: 72px; height: 72px; padding: 0; align-self: center; display: flex; align-items: center; justify-content: center; }
.lp-cat-flag { font-size: 11px; color: var(--saffron, #f5a623); text-align: center; background: rgba(245,166,35,0.1); border-radius: 8px; padding: 4px 10px; }
/* Exercise type header (Listening Check etc.) */
.lp-exercise-header { text-align: center; margin-bottom: 4px; }
.lp-exercise-title { font-size: 18px; font-weight: 800; letter-spacing: 0.01em; }
.lp-exercise-subtitle { font-size: 13px; color: rgba(255,255,255,0.65); margin-top: 2px; }
/* Lesson completion overlay */
.lp-completion-overlay { position: absolute; inset: 0; background: rgba(0,0,0,0.72); display: flex; align-items: center; justify-content: center; z-index: 10; }
.lp-completion-card { background: var(--card, #1a2740); border-radius: 20px; padding: 36px 32px; display: flex; flex-direction: column; align-items: center; gap: 16px; text-align: center; max-width: 340px; width: 90%; }
.lp-completion-emoji { font-size: 52px; line-height: 1; }
.lp-completion-title { font-size: 22px; font-weight: 800; }
.lp-completion-stats { width: 100%; display: flex; flex-direction: column; gap: 10px; }
.lp-stat-row { display: flex; justify-content: space-between; align-items: center; background: rgba(255,255,255,0.06); border-radius: 10px; padding: 10px 14px; gap: 8px; }
.lp-stat-label { font-size: 13px; font-weight: 600; text-align: left; }
.lp-stat-value { font-size: 14px; font-weight: 700; white-space: nowrap; }
.lp-stat-pct { font-size: 12px; color: var(--ink-soft); font-weight: 400; }
.lp-completion-coins { font-size: 28px; font-weight: 700; color: var(--saffron, #f5a623); }
.lp-completion-coin-icon { font-size: 28px; }
.lp-completion-btn { width: 100%; margin-top: 8px; font-size: 16px; padding: 14px; }
.lp-choice-img { max-width: 200px; max-height: 160px; border-radius: 10px; object-fit: contain; }
.lp-choice-grid { display: grid; grid-template-columns: 1fr 1fr; gap: 10px; width: 100%; max-width: 300px; }
.lp-choice-btn {
  font-size: 36px; padding: 16px 8px; border-radius: 12px;
  border: 2px solid rgba(255,255,255,0.25);
  background: rgba(0,0,0,0.55); color: #fff;
  cursor: pointer; transition: background 0.15s, border-color 0.15s, transform 0.1s;
  box-shadow: 0 2px 8px rgba(0,0,0,0.5);
}
.lp-choice-btn:hover:not(:disabled) { border-color: var(--accent); background: rgba(0,0,0,0.7); transform: translateY(-2px); }
.lp-choice-btn:active:not(:disabled) { transform: translateY(0); }
.lp-choice-btn.lp-choice-correct { background: #2e7d32; border-color: #4caf50; color: #fff; }
.lp-choice-btn.lp-choice-wrong   { background: #7b1010; border-color: #e53935; color: #fff; }
.lp-choice-btn.lp-choice-reveal  { border-color: #4caf50; background: rgba(76,175,80,0.15); }
.lp-choice-feedback { font-size: 16px; font-weight: 700; }
.lp-choice-feedback.correct { color: #4caf50; }
.lp-choice-feedback.wrong   { color: #e53935; }
.lp-choice-countdown { font-size: 13px; opacity: 0.75; margin-left: 4px; }

/* Navigation */
.lp-player-nav {
  display: flex; gap: 10px; padding: 14px 16px 18px;
  border-top: 1px solid color-mix(in srgb, var(--accent) 12%, transparent);
}
.lp-nav-btn { flex: 1; display: flex; align-items: center; justify-content: center; gap: 4px; }
.lp-practice-btn { background: var(--accent); font-size: 15px; }

/* ---------------------------------------------------------------------------
   LP4 — Lesson Path Screen
--------------------------------------------------------------------------- */
.lp-path-screen {
  flex: 1; display: flex; flex-direction: column; overflow: hidden;
  background: linear-gradient(180deg, #0d1b3e 0%, #1a1040 50%, #0d1b3e 100%);
}
.lp-path-scroll {
  flex: 1; overflow-y: auto; position: relative; scrollbar-width: thin; scrollbar-color: rgba(245,239,230,0.18) transparent;
  padding: 24px 0 80px;
}
.lp-path-svg {
  position: absolute; inset: 0; width: 100%; height: 100%;
  pointer-events: none; overflow: visible;
}
.lp-connector { stroke: url(#lp-path-grad-0); stroke-width: 10; stroke-linecap: round; filter: drop-shadow(0 0 6px rgba(255,180,50,0.5)); }

/* #725 — classCode boundary separator */
.lp-code-sep {
  display: flex; flex-direction: column; align-items: center; gap: 6px;
  padding: 14px 0 10px; position: relative;
}
.lp-code-sep-line { width: 80%; height: 1.5px; border-radius: 999px; }
.lp-code-sep-badge {
  display: flex; align-items: center; gap: 6px;
  padding: 5px 14px; border-radius: 999px;
  border: 1.5px solid var(--lp-code-color, #f5a623);
  background: rgba(0,0,0,0.35);
  backdrop-filter: blur(4px);
}
.lp-code-sep-label {
  font-family: 'Fraunces', serif; font-size: 13px; font-weight: 700;
  letter-spacing: 0.06em;
}
.lp-path-rows  { display: flex; flex-direction: column; gap: 0; position: relative; z-index: 1; }

/* Node rows */
.lp-node-row   { position: relative; height: 130px; pointer-events: none; }
.lp-node-row * { pointer-events: auto; }
.lp-node-wrap  { position: absolute; top: 50%; transform: translateY(-50%) translateX(-50%); display: flex; flex-direction: column; align-items: center; gap: 8px; }
.lp-node {
  width: 72px; height: 72px; border-radius: 50%;
  display: flex; align-items: center; justify-content: center;
  border: 4px solid rgba(255,255,255,0.15);
  cursor: pointer; transition: transform 0.15s, box-shadow 0.15s;
}
.lp-node:active { transform: scale(0.92); }
.lp-node-inner { display: flex; flex-direction: column; align-items: center; line-height: 1; gap: 1px; }
.lp-node-num   { font-size: 20px; font-weight: 900; color: #fff; }
.lp-node-paw   { font-size: 13px; opacity: 0.85; }
.lp-node-available {
  background: linear-gradient(145deg, #f5a623, #e07b00);
  border-color: #ffd080;
  box-shadow: 0 4px 20px rgba(240,140,0,0.6), 0 0 0 4px rgba(255,200,80,0.2);
  color: #fff;
}
.lp-node-completed {
  background: linear-gradient(145deg, #3cb87a, #2a7a52);
  border-color: #7de8b0;
  box-shadow: 0 4px 14px rgba(60,184,122,0.45);
  color: #fff;
}
.lp-node-locked {
  background: linear-gradient(145deg, #3a3d50, #2a2d3f);
  border-color: rgba(255,255,255,0.15);
  filter: grayscale(1);
  opacity: 0.55;
  color: rgba(255,255,255,0.35);
  cursor: not-allowed;
}
.lp-node-energy-locked {
  background: linear-gradient(145deg, #3a2800, #2a1e00);
  border: 3px dashed #f0a500;
  color: #f0a500;
  cursor: not-allowed;
}
.lp-start-badge {
  font-size: 10px; font-weight: 900; letter-spacing: 0.12em;
  color: #ffd080; text-transform: uppercase;
  background: rgba(255,180,50,0.15);
  border: 1px solid rgba(255,180,50,0.4);
  border-radius: 999px; padding: 2px 10px;
  margin-top: 2px;
}

/* issue #430 — energy bar */
.lp-energy-bar {
  position: sticky; top: 0; z-index: 10;
  display: flex; flex-direction: column; gap: 6px;
  padding: 8px 16px;
  background: color-mix(in srgb, var(--bg) 90%, transparent);
  backdrop-filter: blur(6px);
  border-bottom: 1px solid color-mix(in srgb, var(--accent) 15%, transparent);
  font-size: 14px; font-weight: 700;
}
.lp-energy-top { display: flex; align-items: center; gap: 8px; }
.lp-energy-bar.lp-energy-bonus .lp-energy-value { color: #f0a500; }
.lp-energy-icon { font-size: 18px; }
.lp-energy-refill { font-size: 12px; font-weight: 400; color: #F5EFE6; margin-left: auto; }
.lp-energy-track { width: 100%; height: 4px; border-radius: 2px; background: rgba(255,255,255,0.08); overflow: hidden; }
.lp-energy-fill { height: 100%; border-radius: 2px; background: linear-gradient(90deg, #B08521, #E8A33D); transition: width 0.5s ease; }
@keyframes lp-pulse {
  0%, 100% { box-shadow: 0 4px 20px rgba(240,140,0,0.6), 0 0 0 4px rgba(255,200,80,0.2); }
  50%       { box-shadow: 0 4px 32px rgba(240,140,0,0.85), 0 0 0 10px rgba(255,200,80,0.15); }
}
.lp-node-pulse { animation: lp-pulse 2s ease-in-out infinite; }

.lp-node-label {
  font-size: 12px; font-weight: 700; text-align: center; max-width: 90px;
  color: rgba(255,255,255,0.9);
  word-break: break-word;
  text-shadow: 0 1px 4px rgba(0,0,0,0.8);
}

/* Section separators */
.lp-section-sep {
  display: flex; flex-direction: column; align-items: center; gap: 8px;
  padding: 28px 24px 12px;
}
.lp-section-sep-line {
  width: 70%; height: 2px;
  background: linear-gradient(90deg, transparent, rgba(255,180,50,0.5), transparent);
}
.lp-section-sep-label {
  display: flex; gap: 10px; align-items: center;
  font-size: 13px; font-weight: 800; text-transform: uppercase; letter-spacing: 0.1em;
  color: rgba(255,200,100,0.9);
  background: rgba(255,180,50,0.1);
  border: 1px solid rgba(255,180,50,0.25);
  border-radius: 999px; padding: 4px 16px;
}
.lp-section-sep-pct { color: #ffd080; font-size: 11px; }
.lp-section-sep-name {
  font-size: 18px; font-weight: 600; color: var(--ivory);
  text-align: center; letter-spacing: 0.02em;
  text-shadow: 0 1px 8px rgba(0,0,0,0.5);
  max-width: 280px; word-break: break-word;
}
.lp-reward-row { display: flex; gap: 8px; }
.lp-reward-chip {
  font-size: 12px; padding: 3px 10px; border-radius: 999px;
  background: color-mix(in srgb, var(--ink-soft) 20%, transparent);
  color: color-mix(in srgb, #fff 40%, transparent);
  border: 1px solid color-mix(in srgb, var(--accent) 15%, transparent);
  transition: background 0.2s, color 0.2s;
  cursor: help;
}
.lp-reward-chip.ready  { background: color-mix(in srgb, var(--accent) 20%, transparent); color: var(--accent); border-color: var(--accent); }
.lp-reward-chip.claimed { background: color-mix(in srgb, #2F6E5C 25%, transparent); color: #4CAF81; border-color: #2F6E5C; }
/* #505 — empty state when no lessons are available */
.lp-path-empty {
  flex: 1; display: flex; flex-direction: column; align-items: center; justify-content: center;
  gap: 12px; padding: 40px 24px; color: rgba(255,200,100,0.7); text-align: center;
}
.lp-path-empty p { margin: 0; font-size: 15px; font-weight: 600; color: rgba(255,255,255,0.8); }
.lp-path-empty-sub { font-size: 13px !important; color: rgba(255,255,255,0.45) !important; font-weight: 400 !important; }

/* LP7 — peer badges on lesson nodes */
.lp-peer-cluster {
  display: flex; flex-wrap: wrap; justify-content: center; gap: 4px;
  margin-bottom: 4px; max-width: 120px;
}
.lp-peer-badge {
  display: flex; flex-direction: column; align-items: center; gap: 2px;
}
.lp-peer-avatar-wrap {
  position: relative; width: 24px; height: 24px;
}
.lp-peer-avatar-img {
  width: 24px; height: 24px; border-radius: 50%;
  object-fit: cover; border: 1px solid color-mix(in srgb, #fff 30%, transparent);
}
.lp-peer-avatar-fallback {
  width: 24px; height: 24px; border-radius: 50%;
  background: var(--accent); color: #fff;
  display: flex; align-items: center; justify-content: center;
  font-size: 10px; font-weight: 700;
}
.lp-peer-dot {
  position: absolute; bottom: 0; right: 0;
  width: 7px; height: 7px; border-radius: 50%;
  background: color-mix(in srgb, #888 80%, transparent);
  border: 1px solid var(--ink);
}
.lp-peer-dot.online { background: #4CAF81; }
.lp-peer-name {
  font-size: 9px; color: color-mix(in srgb, #fff 60%, transparent);
  max-width: 40px; overflow: hidden; text-overflow: ellipsis; white-space: nowrap;
  text-align: center;
}
.lp-peer-overflow {
  font-size: 10px; font-weight: 700;
  color: color-mix(in srgb, #fff 60%, transparent);
  align-self: center;
}

/* LP5 — decorative background avatars */
.lp-deco-layer {
  position: absolute; inset: 0; pointer-events: none; overflow: hidden; z-index: 0;
}
.lp-deco-avatar {
  position: absolute; width: 44px; height: 44px;
  object-fit: contain;
  filter: blur(0.5px) brightness(0.7);
  transition: opacity 0.3s;
  opacity: 0.45 !important;
}
@media (max-width: 375px) {
  .lp-deco-avatar:nth-child(n+7) { display: none; }
}

/* Empty state */
.lp-path-empty {
  flex: 1; display: flex; flex-direction: column; align-items: center; justify-content: center;
  gap: 12px; color: var(--ink-soft); text-align: center; padding: 40px;
}
.lp-path-empty-sub { font-size: 13px; opacity: 0.7; }

/* ── Issue #559 — Daily event banner popup ── */
.ev-popup-overlay {
  position: fixed; inset: 0; z-index: 9999;
  background: rgba(0,0,0,0.75);
  display: flex; align-items: center; justify-content: center;
  padding: 24px;
  animation: ach-fadein 0.25s ease;
}
.ev-popup-banner {
  max-width: min(420px, 100%);
  max-height: 90dvh;
  width: auto; height: auto;
  object-fit: contain;
  border-radius: 16px;
  cursor: pointer;
  box-shadow: 0 8px 40px rgba(0,0,0,0.6);
}

/* ── Issue #551 — Events tab ── */
/* ── EventsScreen ── */
.ev-screen { padding: 16px; display: flex; flex-direction: column; gap: 20px; max-width: 1200px; margin: 0 auto; }
.ev-loading { padding: 40px; text-align: center; color: var(--ink-soft); opacity: 0.7; }

/* Header */
.ev-page-header { text-align: center; padding: 8px 0 8px; border-radius: 10px; background: rgba(9,6,56,0.4); }
.ev-page-title-row { display: flex; align-items: center; justify-content: center; }
.ev-page-title { font-family: 'Cormorant Unicase', serif; font-size: 32px; font-weight: 700; letter-spacing: .06em; color: #E8A33D; text-shadow: 0 0 18px rgba(232,163,61,0.55); margin: 0; }
.ev-page-sub { font-size: 0.75rem; color: #F5C485; margin: 4px 0 0; letter-spacing: .04em; }

/* Layout */
.ev-layout { display: flex; gap: 20px; align-items: flex-start; }
.ev-main { flex: 1; min-width: 0; display: flex; flex-direction: column; gap: 16px; }


/* Cards grid */
.ev-grid { display: grid; grid-template-columns: repeat(2, 1fr); gap: 14px; }
@media (min-width: 900px) { .ev-grid { grid-template-columns: repeat(3, 1fr); } }

/* Event card */
.ev-card { border-radius: 16px; overflow: hidden; background: color-mix(in srgb, var(--ev-color, var(--accent)) 8%, #1a1230); border: 2px solid color-mix(in srgb, var(--ev-color, var(--accent)) 45%, transparent); box-shadow: 0 0 18px color-mix(in srgb, var(--ev-color, var(--accent)) 22%, transparent); display: flex; flex-direction: column; cursor: pointer; }
.ev-banner-popup-overlay { position: fixed; inset: 0; z-index: 9000; background: rgba(10,8,28,0.88); display: flex; align-items: center; justify-content: center; padding: 60px 24px 24px; backdrop-filter: blur(4px); }
.ev-banner-popup-img { max-width: min(420px, 90vw); max-height: calc(100dvh - 100px); border-radius: 16px; object-fit: contain; box-shadow: 0 8px 48px rgba(0,0,0,0.6); width: auto; height: auto; }
.ev-banner-popup-close { position: fixed; top: 20px; right: 20px; z-index: 9001; background: rgba(255,255,255,0.12); border: none; border-radius: 50%; width: 36px; height: 36px; color: #fff; font-size: 18px; cursor: pointer; display: flex; align-items: center; justify-content: center; }
.ev-card-art { position: relative; aspect-ratio: 3/2; overflow: hidden; }
.ev-banner-img { width: 100%; height: 100%; object-fit: cover; display: block; }
.ev-card-art-placeholder { width: 100%; height: 100%; display: flex; align-items: center; justify-content: center; background: color-mix(in srgb, var(--ev-color, var(--accent)) 15%, #1a1230); font-size: 48px; }
.ev-cat-badge { position: absolute; top: 10px; left: 10px; font-size: 9px; font-weight: 700; letter-spacing: 0.1em; padding: 3px 8px; border-radius: 99px; color: #0d0a1a; }
.ev-card-body { padding: 12px 14px; display: flex; flex-direction: column; gap: 6px; flex: 1; }
.ev-card-name { font-family: 'Fraunces', serif; font-size: 18px; font-weight: 700; color: #CCE2E6; line-height: 1.15; }
.ev-card-subtitle { font-size: 11px; color: rgba(245,239,230,0.5); }
.ev-card-countdown { display: flex; align-items: center; gap: 6px; font-size: 11px; margin-top: 4px; }
.ev-countdown-icon { font-size: 12px; }
.ev-countdown { color: color-mix(in srgb, var(--ev-color, var(--accent)) 90%, var(--ivory)); font-weight: 600; }

/* Teacher controls */
.ev-teacher-controls { display: flex; flex-direction: column; gap: 10px; padding-top: 10px; border-top: 1px solid color-mix(in srgb, var(--ivory) 10%, transparent); margin-top: 4px; }
.ev-force-row { display: flex; align-items: center; gap: 8px; font-size: 12px; color: color-mix(in srgb, var(--ivory) 70%, transparent); cursor: pointer; }
.ev-force-row input[type=checkbox] { accent-color: var(--ev-color, var(--accent)); }
.ev-art-row { display: flex; gap: 12px; }
.ev-art-field { display: flex; flex-direction: column; gap: 6px; flex: 1; }
.ev-art-preview { border-radius: 6px; border: 1px solid color-mix(in srgb, var(--ivory) 15%, transparent); object-fit: cover; }
.ev-art-preview-h { width: 100%; max-height: 70px; }
.ev-art-preview-v { width: 60px; height: 90px; }


/* Event Calendar */
.ev-cal { background: #14172eab; border: none; border-radius: 10px; padding: 16px; display: flex; flex-direction: column; gap: 0; }
.ev-cal-header { display: flex; align-items: center; justify-content: space-between; margin-bottom: 12px; }
.ev-cal-title { font-size: 13px; font-weight: 700; color: #fff; display: flex; align-items: center; gap: 6px; }
.ev-cal-title-icon { font-size: 14px; color: #E8A33D; }
.ev-cal-month { font-size: 10px; font-weight: 600; letter-spacing: 0.06em; color: rgb(245 239 230 / 70%); }
.ev-cal-ruler { position: relative; height: 20px; margin-bottom: 6px; }
.ev-cal-tick { position: absolute; display: flex; flex-direction: column; align-items: center; transform: translateX(-50%); }
.ev-cal-tick-line { width: 1px; height: 6px; background: rgba(245,239,230,0.6); }
.ev-cal-tick-label { font-size: 9px; color: rgba(245,239,230,0.75); margin-top: 2px; }
.ev-cal-body { position: relative; }
.ev-cal-today-marker { position: absolute; top: 0; bottom: 0; width: 1px; background: rgba(245,239,230,0.9); pointer-events: none; z-index: 1; }
.ev-cal-bars { display: flex; flex-direction: column; gap: 10px; }
.ev-cal-bar-track { position: relative; height: 32px; }
.ev-cal-bar { position: absolute; top: 0; height: 100%; border-radius: 8px; overflow: visible; min-width: 4%; box-sizing: border-box; }
.ev-cal-bar-img { position: absolute; width: 38px; height: 38px; object-fit: contain; top: 50%; transform: translateY(-50%); z-index: 2; }
.ev-cal-bar-img--left  { right: calc(100% - 20px); left: auto; }
.ev-cal-bar-img--right { left: calc(100% - 20px); right: auto; }
.ev-cal-bar-icon { position: absolute; font-size: 16px; top: 50%; transform: translateY(-50%); z-index: 2; }
.ev-cal-bar-icon--left  { left: 8px; }
.ev-cal-bar-icon--right { right: 8px; }
.ev-cal-bar-name { position: absolute; top: 50%; transform: translateY(-50%); font-size: 10px; font-weight: 700; color: #E8A33D; white-space: normal; overflow: visible; z-index: 1; letter-spacing: 0.03em; line-height: 1.2; }
.ev-cal-bar-track { position: relative; min-height: 32px; height: auto; }
.ev-cal-empty { font-size: 12px; color: rgba(245,239,230,0.35); text-align: center; padding: 8px 0; }

/* Sidebar */
.ev-sidebar { width: 340px; flex-shrink: 0; display: flex; flex-direction: column; gap: 16px; }

/* Empty */
.ev-empty { display: flex; flex-direction: column; align-items: center; gap: 10px; padding: 60px 20px; text-align: center; color: color-mix(in srgb, var(--ivory) 55%, transparent); }
.ev-empty-icon { font-size: 40px; }
.ev-empty p { margin: 0; font-size: 14px; }
.ev-empty-sub { font-size: 12px; opacity: 0.65; }
.ev-teacher-hint { font-size: 12px; color: color-mix(in srgb, var(--ivory) 45%, transparent); text-align: center; padding: 0 16px; }

/* Carrossel — oculto no desktop */
.ev-carousel { display: none; }

/* Mobile */
@media (max-width: 700px) {
  .ev-layout { flex-direction: column; }
  .ev-sidebar { width: 100%; }
  .ev-grid { grid-template-columns: repeat(2, 1fr); gap: 10px; }
  /* Carrossel */
  .ev-carousel { display: block; position: relative; border-radius: 16px; overflow: hidden; aspect-ratio: 16/9; background: #0d0d1f; }
  .ev-carousel-slide { display: none; position: absolute; inset: 0; }
  .ev-carousel-slide--active { display: block; }
  .ev-carousel-img { width: 100%; height: 100%; object-fit: cover; }
  .ev-carousel-placeholder { width: 100%; height: 100%; display: flex; align-items: center; justify-content: center; font-size: 64px; background: rgba(255,255,255,0.03); }
  .ev-carousel-overlay { position: absolute; inset: 0; background: linear-gradient(to top, rgba(10,8,28,0.92) 0%, rgba(10,8,28,0.4) 50%, transparent 100%); display: flex; flex-direction: column; justify-content: flex-end; padding: 16px; gap: 4px; }
  .ev-carousel-coming-pill { align-self: flex-start; background: rgba(212,175,55,0.2); border: 1px solid rgba(212,175,55,0.5); border-radius: 99px; padding: 3px 10px; font-size: 11px; font-weight: 700; color: #E8A33D; margin-bottom: 4px; }
  .ev-carousel-name { font-size: 22px; font-weight: 800; color: #fff; line-height: 1.1; text-shadow: 0 2px 8px rgba(0,0,0,0.6); }
  .ev-carousel-sub { font-size: 12px; color: rgba(245,239,230,0.7); }
  .ev-carousel-meta { display: flex; align-items: center; justify-content: space-between; margin-top: 6px; flex-wrap: wrap; gap: 4px; }
  .ev-carousel-dates { font-size: 10px; color: rgba(245,239,230,0.5); }
  .ev-carousel-countdown { font-size: 11px; font-weight: 700; color: #CCE2E6; }
  .ev-carousel-dots { position: absolute; bottom: 10px; left: 50%; transform: translateX(-50%); display: flex; gap: 6px; }
  .ev-carousel-dot { width: 6px; height: 6px; border-radius: 50%; border: none; background: rgba(255,255,255,0.3); padding: 0; cursor: pointer; transition: background .2s; }
  .ev-carousel-dot--active { background: #fff; }

}
`;
